tools/tinyml_generator/model/mediapipe_face_landmark.tflite (tflite, 768792 bytes, 68 tensors)

conv2d/conv2d i1 [16, 3, 3, 3]
-93 8 15 18 -12 22 -31 -24
-8 -42 1 50 -16 -16 50 -32
29 61 -43 50 113 -17 29 127
12 22 98 -8 -67 8 -28 39
43 -25 0 55 -44 -127 8 -10
-88 10 10 -21 -9 -23 -90 32
-4 -47 29 0 -20 14 54 34
19 37 11 -6 47 26 3 -60
-20 -18 -127 -24 -30 -45 -11 -16
-44 1 -1 -92 -9 -7 -61 -17
-16 -25 25 39 0 115 81 -32
46 62 -13 15 -14 39 127 15
-21 36 39 -13 -80 -65 46 -14
-51 26 -27 -7 73 91 -13 77
-16 -91 13 -6 -123 35 70 -8
-20 71 -53 -1 75 -35 17 127
26 -69 77 -21 -88 14 -14 55
26 64 3 -2 82 -28 13 21
-28 -101 0 -55 -127 -12 -16 -22
-9 -30 -63 22 -24 -73 -1 -21
-9 9 16 76 11 3 32 37
-49 -54 -13 80 127 45 52 57
51 -42 -15 -24 46 34 5 37
30 12 -12 -40 -26 -37 -43 -24
-103 -127 -38 -70 -79 -42 -4 3
-5 -49 -36 -3 -40 -28 10 48
43 26 28 43 35 45 27 49
54 52 52 3 -52 52 -2 -40
0 58 39 104 40 30 98 127
55 42 28 71 74 11 45 61
87 40 9 -11 -80 -71 -35 -127
-50 -3 37 14 23 -89 -66 6
00000000: a308 0f12 f416 e1e8 f8d6 0132 f0f0 32e0
00000010: 1d3d d532 71ef 1d7f 0c16 62f8 bd08 e427
00000020: 2be7 0037 d481 08f6 a80a 0aeb f7e9 a620
00000030: fcd1 1d00 ec0e 3622 1325 0bfa 2f1a 03c4
00000040: ecee 81e8 e2d3 f5f0 d401 ffa4 f7f9 c3ef
00000050: f0e7 1927 0073 51e0 2e3e f30f f227 7f0f
00000060: eb24 27f3 b0bf 2ef2 cd1a e5f9 495b f34d
00000070: f0a5 0dfa 8523 46f8 ec47 cbff 4bdd 117f
00000080: 1abb 4deb a80e f237 1a40 03fe 52e4 0d15
00000090: e49b 00c9 81f4 f0ea f7e2 c116 e8b7 ffeb
000000a0: f709 104c 0b03 2025 cfca f350 7f2d 3439
000000b0: 33d6 f1e8 2e22 0525 1e0c f4d8 e6db d5e8
000000c0: 9981 daba b1d6 fc03 fbcf dcfd d8e4 0a30
000000d0: 2b1a 1c2b 232d 1b31 3634 3403 cc34 fed8
000000e0: 003a 2768 281e 627f 372a 1c47 4a0b 2d3d
000000f0: 5728 09f5 b0b9 dd81 cefd 250e 17a7 be06

p_re_lu/p_re_lu/Alpha i1 [1, 1, 16] scale=0.0048763296 zero_point=-96
-0.15604255 0.3169614 0.77046007 0.8045944 -0.12678456 0.7216968 1.0874215 0.83385235
0.18530053 0.043886967 0.74607843 0.49738562 0.8679867 0.7168204 -0.07314494 0.57053053
00000000: 80e1 3e45 8634 7f4b c6a9 3906 5233 9115

depthwise_conv2d/depthwise_conv2d i1 [1, 3, 3, 16]
-44 87 3 -88 15 57 -77 -85
5 9 98 3 42 -87 -127 110
-127 120 -75 -114 47 127 -10 -127
85 51 33 10 89 -127 -95 125
-112 80 -127 -50 53 80 -3 -33
62 127 -16 -127 17 -85 -101 96
23 -115 42 28 127 -41 -127 7
-38 -78 127 77 -29 18 -97 14
-30 -72 7 6 95 25 25 12
-40 -56 -31 28 -127 14 -118 -20
-19 109 -49 23 117 57 28 -24
127 53 -31 41 -48 -80 -115 2
57 -127 59 127 90 17 -58 24
-86 -31 69 122 48 103 -46 -52
56 -49 64 52 83 33 -26 36
35 18 -32 32 -6 47 -87 -127
69 38 -15 11 115 -60 -4 1
88 28 18 -57 36 13 -42 -96
00000000: d457 03a8 0f39 b3ab 0509 6203 2aa9 816e
00000010: 8178 b58e 2f7f f681 5533 210a 5981 a17d
00000020: 9050 81ce 3550 fddf 3e7f f081 11ab 9b60
00000030: 178d 2a1c 7fd7 8107 dab2 7f4d e312 9f0e
00000040: e2b8 0706 5f19 190c d8c8 e11c 810e 8aec
00000050: ed6d cf17 7539 1ce8 7f35 e129 d0b0 8d02
00000060: 3981 3b7f 5a11 c618 aae1 457a 3067 d2cc
00000070: 38cf 4034 5321 e624 2312 e020 fa2f a981
00000080: 4526 f10b 73c4 fc01 581c 12c7 240d d6a0

conv2d_1/conv2d i1 [16, 1, 1, 16]
65 -72 73 63 4 69 -34 -40
-32 20 20 127 60 66 -11 -57
39 3 104 -16 1 20 48 123
-58 -127 84 112 117 74 30 -101
10 7 67 0 -54 -71 -2 92
5 22 -31 10 -9 21 17 -127
-127 -24 8 -39 -2 -23 85 3
-9 1 28 -50 -12 14 35 31
59 3 -17 -10 -51 18 10 1
3 14 -29 16 127 -5 34 -53
24 -25 15 -70 69 -97 -6 93
23 -12 -31 -28 127 40 -57 -103
-50 9 40 71 3 -66 126 -100
28 -1 55 -31 -66 12 -16 127
67 55 -123 54 10 -15 -62 59
-19 -1 -127 -19 42 25 -11 -24
-41 23 -38 82 -57 38 -13 -127
-17 91 -91 -6 26 29 -18 63
18 20 46 -70 -98 7 57 2
-11 -11 38 -27 65 48 127 -43
127 2 -23 -42 -79 -54 -1 80
-12 -69 -6 -43 -17 90 117 -100
71 -22 -27 9 -51 42 -16 18
-40 111 19 -127 81 -87 -87 75
-75 51 -127 24 -59 -51 37 -25
-28 81 9 -1 70 -9 54 -81
-6 -12 40 59 -60 -43 -27 4
-3 -61 -14 127 73 46 -37 28
82 20 31 -36 -7 -51 57 69
26 -54 92 92 -109 18 42 -127
-31 -7 8 -38 -39 7 -5 18
5 -37 10 -39 -42 -31 -100 127
00000000: 41b8 493f 0445 ded8 e014 147f 3c42 f5c7
00000010: 2703 68f0 0114 307b c681 5470 754a 1e9b
00000020: 0a07 4300 cab9 fe5c 0516 e10a f715 1181
00000030: 81e8 08d9 fee9 5503 f701 1cce f40e 231f
00000040: 3b03 eff6 cd12 0a01 030e e310 7ffb 22cb
00000050: 18e7 0fba 459f fa5d 17f4 e1e4 7f28 c799
00000060: ce09 2847 03be 7e9c 1cff 37e1 be0c f07f
00000070: 4337 8536 0af1 c23b edff 81ed 2a19 f5e8
00000080: d717 da52 c726 f381 ef5b a5fa 1a1d ee3f
00000090: 1214 2eba 9e07 3902 f5f5 26e5 4130 7fd5
000000a0: 7f02 e9d6 b1ca ff50 f4bb fad5 ef5a 759c
000000b0: 47ea e509 cd2a f012 d86f 1381 51a9 a94b
000000c0: b533 8118 c5cd 25e7 e451 09ff 46f7 36af
000000d0: faf4 283b c4d5 e504 fdc3 f27f 492e db1c
000000e0: 5214 1fdc f9cd 3945 1aca 5c5c 9312 2a81
000000f0: e1f9 08da d907 fb12 05db 0ad9 d6e1 9c7f

p_re_lu_1/p_re_lu_1/Alpha i1 [1, 1, 16] scale=0.006314959 zero_point=-24
0.5051967 0.12629917 0.4167873 0.48625183 -0.65675575 -0.20207869 -0.29680306 -0.14524406
0.34732273 0.18313381 -0.39152744 0.46730697 0.9535588 0.15155901 -0.18313381 0.18313381
00000000: 38fc 2a35 80c8 b9d1 1f05 aa32 7f00 cb05

depthwise_conv2d_1/depthwise_conv2d i1 [1, 3, 3, 16]
77 46 28 -4 63 13 -31 -20
-72 -123 -55 -37 127 -35 -105 -46
26 -34 96 -42 -5 70 -12 26
6 -88 -47 -95 70 63 -111 10
-49 -14 43 -104 1 13 13 16
53 -112 -81 45 30 110 -114 87
61 126 81 127 -48 91 -42 99
-127 -33 42 -127 78 2 -39 -127
-14 -26 68 82 -56 104 -127 127
4 -127 127 14 -19 40 -83 21
-35 -46 -82 -74 50 55 44 89
13 -93 -13 49 9 127 -127 67
127 127 35 38 -7 -46 12 -50
-116 -32 -9 15 55 -56 27 -89
16 44 127 41 127 -127 54 1
-13 -29 11 69 -71 50 37 10
22 -25 11 -76 105 -51 52 -19
74 -51 -38 101 14 65 37 35
00000000: 4d2e 1cfc 3f0d e1ec b885 c9db 7fdd 97d2
00000010: 1ade 60d6 fb46 f41a 06a8 d1a1 463f 910a
00000020: cff2 2b98 010d 0d10 3590 af2d 1e6e 8e57
00000030: 3d7e 517f d05b d663 81df 2a81 4e02 d981
00000040: f2e6 4452 c868 817f 0481 7f0e ed28 ad15
00000050: ddd2 aeb6 3237 2c59 0da3 f331 097f 8143
00000060: 7f7f 2326 f9d2 0cce 8ce0 f70f 37c8 1ba7
00000070: 102c 7f29 7f81 3601 f3e3 0b45 b932 250a
00000080: 16e7 0bb4 69cd 34ed 4acd da65 0e41 2523

conv2d_2/conv2d i1 [16, 1, 1, 16]
13 16 7 51 -7 -76 127 -106
55 27 108 89 4 27 -6 21
100 -127 -65 -119 -62 95 107 4
-3 -11 0 9 -20 -38 107 -26
-62 -33 36 -66 11 -91 51 0
-127 15 -84 46 118 69 99 75
-3 48 20 14 -23 -27 -35 -127
-13 -9 6 4 1 -24 47 -33
23 -2 -5 -53 -127 65 100 -6
8 -3 26 -10 10 21 52 -16
37 29 115 -92 9 -3 127 -41
20 -9 -15 44 33 -37 27 -18
31 -37 -55 -102 -5 -40 52 -53
-19 -1 -127 -64 17 -30 -1 -47
5 -54 -127 -120 -55 34 27 -18
-94 -6 -79 1 7 -31 -12 32
32 1 -84 92 33 -127 -56 -49
75 28 24 5 30 5 7 34
-24 -3 -58 24 38 -44 -23 -127
-51 63 -65 23 -8 -31 -5 -34
11 92 40 23 -23 -74 -82 56
44 110 -17 -127 11 97 -44 -34
-55 -89 20 127 21 -7 -77 14
90 54 -118 28 73 101 22 1
-41 -52 5 42 9 -23 9 -13
2 -93 -11 -11 1 -127 29 21
-103 -127 5 50 13 6 8 24
69 11 11 -23 39 11 -40 -3
-79 9 38 64 63 -3 -127 96
4 39 7 -45 16 92 74 -9
-33 21 -66 23 -60 127 61 24
-25 71 2 17 -10 29 9 -11
00000000: 0d10 0733 f9b4 7f96 371b 6c59 041b fa15
00000010: 6481 bf89 c25f 6b04 fdf5 0009 ecda 6be6
00000020: c2df 24be 0ba5 3300 810f ac2e 7645 634b
00000030: fd30 140e e9e5 dd81 f3f7 0604 01e8 2fdf
00000040: 17fe fbcb 8141 64fa 08fd 1af6 0a15 34f0
00000050: 251d 73a4 09fd 7fd7 14f7 f12c 21db 1bee
00000060: 1fdb c99a fbd8 34cb edff 81c0 11e2 ffd1
00000070: 05ca 8188 c922 1bee a2fa b101 07e1 f420
00000080: 2001 ac5c 2181 c8cf 4b1c 1805 1e05 0722
00000090: e8fd c618 26d4 e981 cd3f bf17 f8e1 fbde
000000a0: 0b5c 2817 e9b6 ae38 2c6e ef81 0b61 d4de
000000b0: c9a7 147f 15f9 b30e 5a36 8a1c 4965 1601
000000c0: d7cc 052a 09e9 09f3 02a3 f5f5 0181 1d15
000000d0: 9981 0532 0d06 0818 450b 0be9 270b d8fd
000000e0: b109 2640 3ffd 8160 0427 07d3 105c 4af7
000000f0: df15 be17 c47f 3d18 e747 0211 f61d 09f5

p_re_lu_2/p_re_lu_2/Alpha i1 [1, 1, 16] scale=0.0049813627 zero_point=21
-0.06475771 0.009962725 0.52802444 0.12951542 -0.2689936 -0.13947816 -0.32378858 -0.03486954
-0.2391054 0.094645895 0.06475771 0.51308036 -0.742223 -0.45330402 -0.1743477 -0.37858358
00000000: 0817 7f2f dff9 d40e e528 227c 80ba f2c9

depthwise_conv2d_2/depthwise_conv2d i1 [1, 3, 3, 16]
-50 9 66 -92 -1 -12 -51 48
-58 -32 -127 43 49 89 -127 -79
-47 45 -9 -87 57 44 -68 28
-111 -19 -92 -9 17 90 -105 -127
-12 57 -8 55 56 46 -36 -41
-85 -44 -49 -29 -29 46 -49 -48
48 -95 39 -127 81 25 -40 127
-14 -31 -122 127 127 104 -117 -24
15 -17 -68 -13 127 127 -127 126
-107 50 -54 63 80 127 -117 -18
9 101 -117 117 29 90 -109 14
-127 94 -78 -61 -18 115 -90 -20
119 -127 41 -49 53 15 0 63
8 -19 -10 93 107 16 -65 61
127 -69 -127 38 44 46 -70 51
-21 108 32 120 113 34 -95 96
57 34 -80 77 -33 34 -69 5
-49 127 -31 20 9 40 -37 91
00000000: ce09 42a4 fff4 cd30 c6e0 812b 3159 81b1
00000010: d12d f7a9 392c bc1c 91ed a4f7 115a 9781
00000020: f439 f837 382e dcd7 abd4 cfe3 e32e cfd0
00000030: 30a1 2781 5119 d87f f2e1 867f 7f68 8be8
00000040: 0fef bcf3 7f7f 817e 9532 ca3f 507f 8bee
00000050: 0965 8b75 1d5a 930e 815e b2c3 ee73 a6ec
00000060: 7781 29cf 350f 003f 08ed f65d 6b10 bf3d
00000070: 7fbb 8126 2c2e ba33 eb6c 2078 7122 a160
00000080: 3922 b04d df22 bb05 cf7f e114 0928 db5b

conv2d_3/conv2d i1 [32, 1, 1, 16]
86 -74 -48 -27 -103 -127 -38 -21
29 83 71 -1 76 55 -28 108
-48 73 42 23 24 -22 119 28
127 19 74 43 -48 -8 13 -80
44 -16 -13 44 -13 -31 -18 -11
-10 -21 -4 108 9 -127 18 -40
5 -113 0 58 -41 -23 52 -127
-36 -8 -7 -27 -69 29 37 41
-20 -18 -43 40 -30 127 120 2
108 -15 18 70 -36 -40 21 29
60 20 53 -104 26 -51 65 38
94 -127 68 28 32 22 88 -4
-22 -6 -71 -10 -115 -22 33 -127
-32 -35 4 -8 -2 14 81 26
10 127 7 77 33 -31 66 4
115 11 119 20 -28 -96 83 -62
-26 102 67 42 35 -39 29 17
42 71 95 14 -99 10 127 -121
-127 26 7 -76 9 -21 92 26
47 -93 -46 -11 -80 -21 -35 11
-38 60 52 46 -8 14 -74 -65
64 96 127 83 -28 -83 7 -40
31 8 91 -25 16 -84 -34 57
29 62 -32 -127 -41 -108 50 68
2 -35 -23 -58 -127 -37 41 -46
-54 -22 39 -23 -73 40 27 0
-25 -10 -31 -7 -85 38 16 -127
-35 -2 7 -19 -25 -87 28 54
-22 57 -33 -127 -17 18 -8 -60
47 -59 19 53 4 -61 82 25
73 -10 -17 127 12 -25 -46 -5
-9 90 52 16 -103 -43 33 -50
00000000: 56b6 d0e5 9981 daeb 1d53 47ff 4c37 e46c
00000010: d049 2a17 18ea 771c 7f13 4a2b d0f8 0db0
00000020: 2cf0 f32c f3e1 eef5 f6eb fc6c 0981 12d8
00000030: 058f 003a d7e9 3481 dcf8 f9e5 bb1d 2529
00000040: ecee d528 e27f 7802 6cf1 1246 dcd8 151d
00000050: 3c14 3598 1acd 4126 5e81 441c 2016 58fc
00000060: eafa b9f6 8dea 2181 e0dd 04f8 fe0e 511a
00000070: 0a7f 074d 21e1 4204 730b 7714 e4a0 53c2
00000080: e666 432a 23d9 1d11 2a47 5f0e 9d0a 7f87
00000090: 811a 07b4 09eb 5c1a 2fa3 d2f5 b0eb dd0b
000000a0: da3c 342e f80e b6bf 4060 7f53 e4ad 07d8
000000b0: 1f08 5be7 10ac de39 1d3e e081 d794 3244
000000c0: 02dd e9c6 81db 29d2 caea 27e9 b728 1b00
000000d0: e7f6 e1f9 ab26 1081 ddfe 07ed e7a9 1c36
000000e0: ea39 df81 ef12 f8c4 2fc5 1335 04c3 5219
000000f0: 49f6 ef7f 0ce7 d2fb f75a 3410 99d5 21ce

p_re_lu_3/p_re_lu_3/Alpha i1 [1, 1, 32] scale=0.0062848013 zero_point=-73
0.15083523 0.06284802 1.2569603 -0.13826562 0.087987214 0.087987214 0.40222728 0.03142401
0.23882245 0.17597443 0.30167046 0.16340484 0.30795527 0.31424007 -0.13198082 0.21996805
0.20111364 -0.09427202 -0.28910086 -0.11312643 0.087987214 -0.06913281 0.037708808 -0.34566408
0.18225923 -0.05027841 0.10055682 -0.025139205 -0.037708808 0.12569603 -0.018854404 0.05027841
00000000: cfc1 7fa1 c5c5 f7bc ddd3 e7d1 e8e9 a2da
00000010: d7a8 89a5 c5ac bd80 d4af c7b3 b1cb b4bf

depthwise_conv2d_3/depthwise_conv2d i1 [1, 3, 3, 32]
-51 -6 94 7 35 -7 -3 31
-116 16 -39 30 -32 -44 -104 -19
-13 -52 -35 30 -34 21 74 -15
119 -7 -2 -92 -61 127 -65 13
-75 8 127 37 55 -6 -6 -12
-120 -6 -36 -42 -10 -127 -23 2
90 13 -31 32 28 -69 127 15
127 -2 37 -42 -127 83 -16 41
-127 -21 41 -10 41 2 13 42
-80 -37 22 -28 -17 -55 -80 -53
21 -18 -8 48 -19 -12 31 15
-126 14 -36 31 28 -68 12 51
-32 -40 59 -27 -95 127 120 -5
-23 -16 -87 29 -127 91 54 94
-54 -92 -53 -5 -32 -47 -26 55
-50 -15 -106 -15 -4 -12 -120 -30
-45 50 -33 -127 48 89 81 127
-127 -91 99 -127 -10 52 -22 127
46 -90 -127 67 -127 -127 9 -84
-33 -106 -7 -11 -84 123 -62 113
-84 31 -30 14 5 -26 127 100
-25 -127 74 -67 49 6 -35 -13
73 28 -32 7 -18 4 44 127
47 -50 127 102 37 11 64 -4
40 5 -37 42 -42 -21 -8 49
-1 26 -127 48 92 -2 72 24
-33 -1 -39 -104 6 -25 -86 -68
-96 -127 44 127 40 -24 -15 -58
46 127 -103 -14 -127 -25 47 -44
12 -12 -69 -43 -43 -69 -11 61
-127 127 -48 -127 -43 -44 -113 -39
86 -67 19 115 84 -124 40 -127
00000000: cdfa 5e07 23f9 fd1f 8c10 d91e e0d4 98ed
00000010: f3cc dd1e de15 4af1 77f9 fea4 c37f bf0d
00000020: b508 7f25 37fa faf4 88fa dcd6 f681 e902
00000030: 5a0d e120 1cbb 7f0f 7ffe 25d6 8153 f029
00000040: 81eb 29f6 2902 0d2a b0db 16e4 efc9 b0cb
00000050: 15ee f830 edf4 1f0f 820e dc1f 1cbc 0c33
00000060: e0d8 3be5 a17f 78fb e9f0 a91d 815b 365e
00000070: caa4 cbfb e0d1 e637 cef1 96f1 fcf4 88e2
00000080: d332 df81 3059 517f 81a5 6381 f634 ea7f
00000090: 2ea6 8143 8181 09ac df96 f9f5 ac7b c271
000000a0: ac1f e20e 05e6 7f64 e781 4abd 3106 ddf3
000000b0: 491c e007 ee04 2c7f 2fce 7f66 250b 40fc
000000c0: 2805 db2a d6eb f831 ff1a 8130 5cfe 4818
000000d0: dfff d998 06e7 aabc a081 2c7f 28e8 f1c6
000000e0: 2e7f 99f2 81e7 2fd4 0cf4 bbd5 d5bb f53d
000000f0: 817f d081 d5d4 8fd9 56bd 1373 5484 2881

conv2d_4/conv2d i1 [32, 1, 1, 32]
84 -59 -55 27 5 -60 -48 -18
81 49 -25 9 -21 8 6 -24
-30 -71 4 10 15 33 127 -1
36 32 6 -19 -44 53 68 73
123 -90 -27 -16 56 -12 63 56
-127 -35 20 19 4 -49 117 5
52 62 110 9 26 50 49 89
-33 43 -94 -39 -107 104 -119 -26
70 57 113 -33 127 -56 46 62
7 -7 105 33 -6 31 -35 -16
15 4 44 -51 -26 47 -60 -39
11 30 10 -60 28 -68 -10 -23
27 0 -16 75 -6 94 7 -68
-11 127 -54 92 70 30 -7 -2
75 88 53 -28 -24 2 54 -77
88 126 -79 15 72 -19 66 -28
20 -17 -108 17 20 7 45 41
-5 1 -7 29 -21 -32 70 -55
28 18 74 -11 -14 90 38 -40
35 60 -127 -36 32 17 90 -58
81 52 48 -127 9 -102 72 45
-33 -50 62 -35 13 94 27 13
-50 -35 93 29 27 42 -34 -45
-94 8 -33 -66 18 -29 40 -29
9 -42 -12 -7 -42 -92 -104 -127
-39 19 16 116 32 56 -20 2
-66 -26 27 -58 -47 25 -32 54
-126 32 87 -5 -78 -39 -39 43
2 -24 -67 16 34 17 -5 -64
-32 16 43 50 -127 -49 22 -98
34 11 48 15 -82 64 25 -42
3 59 86 -19 66 9 92 -36
00000000: 54c5 c91b 05c4 d0ee 5131 e709 eb08 06e8
00000010: e2b9 040a 0f21 7fff 2420 06ed d435 4449
00000020: 7ba6 e5f0 38f4 3f38 81dd 1413 04cf 7505
00000030: 343e 6e09 1a32 3159 df2b a2d9 9568 89e6
00000040: 4639 71df 7fc8 2e3e 07f9 6921 fa1f ddf0
00000050: 0f04 2ccd e62f c4d9 0b1e 0ac4 1cbc f6e9
00000060: 1b00 f04b fa5e 07bc f57f ca5c 461e f9fe
00000070: 4b58 35e4 e802 36b3 587e b10f 48ed 42e4
00000080: 14ef 9411 1407 2d29 fb01 f91d ebe0 46c9
00000090: 1c12 4af5 f25a 26d8 233c 81dc 2011 5ac6
000000a0: 5134 3081 099a 482d dfce 3edd 0d5e 1b0d
000000b0: cedd 5d1d 1b2a ded3 a208 dfbe 12e3 28e3
000000c0: 09d6 f4f9 d6a4 9881 d913 1074 2038 ec02
000000d0: bee6 1bc6 d119 e036 8220 57fb b2d9 d92b
000000e0: 02e8 bd10 2211 fbc0 e010 2b32 81cf 169e
000000f0: 220b 300f ae40 19d6 033b 56ed 4209 5cdc

p_re_lu_4/p_re_lu_4/Alpha i1 [1, 1, 32] scale=0.0059241825 zero_point=-51
-0.017772548 0.11255947 0.14810456 0.07109019 -0.053317644 0.46208623 0.2725124 -0.14810456
0.1362562 0.065166004 0.2369673 0.37322348 0.31398168 0.14218038 1.0545045 0.26066402
-0.035545096 -0.124407835 -0.04739346 -0.25473985 0.41469276 0.11255947 0.1362562 0.10663529
0.11255947 -0.20734638 0.1658771 -0.45616207 0.124407835 0.29028493 0.08886274 0.23104312
00000000: cae0 e6d9 c41b fbb4 e4d8 f50c 02e5 7ff9
00000010: c7b8 c5a2 13e0 e4df e0aa e980 e2fe dcf4

depthwise_conv2d_4/depthwise_conv2d i1 [1, 3, 3, 32]
-31 -127 -24 -10 -50 88 4 -19
58 127 -107 -93 0 -70 -17 79
15 68 20 -25 98 18 49 61
-96 -121 33 126 -30 -7 127 61
46 -48 15 28 41 -38 -13 25
-35 73 -73 -127 -8 4 26 -10
127 122 15 13 9 108 19 25
75 -97 57 66 -127 57 64 4
7 -64 48 59 10 96 22 13
-127 18 -44 -86 -49 77 127 -46
71 96 1 93 -58 67 -8 17
127 14 121 43 -18 63 2 25
-127 -19 9 -19 7 127 -49 -37
-104 -18 -127 -17 127 -127 30 74
-89 45 63 -59 -115 -29 -42 -127
-63 -127 -78 -41 -120 -127 9 1
4 13 -126 87 73 -86 -50 127
40 29 -11 36 -31 7 -16 0
2 -66 -127 2 -17 -127 -127 -6
10 -7 56 -127 18 57 2 -48
41 -3 17 3 28 69 47 -27
104 94 52 95 28 113 -49 -124
50 -127 -51 107 -127 5 -43 19
6 -8 127 -73 23 39 -71 48
-80 41 6 -127 -79 -38 -19 -32
124 62 -27 15 -2 -6 36 100
-102 -5 28 -127 -88 64 35 13
-47 -114 -96 -7 21 -92 12 -127
29 108 -127 -52 12 -88 127 -34
5 55 76 5 -25 -85 -13 -2
-120 -92 50 7 -22 46 112 2
44 -38 -68 -16 113 -33 -62 13
00000000: e181 e8f6 ce58 04ed 3a7f 95a3 00ba ef4f
00000010: 0f44 14e7 6212 313d a087 217e e2f9 7f3d
00000020: 2ed0 0f1c 29da f319 dd49 b781 f804 1af6
00000030: 7f7a 0f0d 096c 1319 4b9f 3942 8139 4004
00000040: 07c0 303b 0a60 160d 8112 d4aa cf4d 7fd2
00000050: 4760 015d c643 f811 7f0e 792b ee3f 0219
00000060: 81ed 09ed 077f cfdb 98ee 81ef 7f81 1e4a
00000070: a72d 3fc5 8de3 d681 c181 b2d7 8881 0901
00000080: 040d 8257 49aa ce7f 281d f524 e107 f000
00000090: 02be 8102 ef81 81fa 0af9 3881 1239 02d0
000000a0: 29fd 1103 1c45 2fe5 685e 345f 1c71 cf84
000000b0: 3281 cd6b 8105 d513 06f8 7fb7 1727 b930
000000c0: b029 0681 b1da ede0 7c3e e50f fefa 2464
000000d0: 9afb 1c81 a840 230d d18e a0f9 15a4 0c81
000000e0: 1d6c 81cc 0ca8 7fde 0537 4c05 e7ab f3fe
000000f0: 88a4 3207 ea2e 7002 2cda bcf0 71df c20d

conv2d_5/conv2d i1 [32, 1, 1, 32]
53 -22 -70 63 -88 60 15 -124
4 -22 -16 32 0 127 -30 31
13 -27 15 -15 -1 39 12 -26
18 122 25 11 -51 41 -65 -104
36 95 -35 -52 -37 29 -33 12
29 100 -33 56 -56 4 -19 -18
-89 80 13 -68 -37 -47 13 -56
51 -13 4 8 55 17 -127 38
-4 49 127 -31 25 -58 6 -9
-3 18 26 -9 -2 86 -22 33
14 11 21 11 -13 -88 55 58
44 -33 -84 -13 -45 -41 39 13
58 48 38 -127 7 60 -3 -15
5 34 19 54 55 -93 15 109
-88 29 8 27 52 49 14 -40
46 -104 -6 69 -11 55 19 -8
35 -11 32 38 -119 29 -77 -32
9 1 -3 39 47 -23 19 -2
5 16 -8 -41 -29 -1 18 34
0 47 10 26 127 -27 2 66
46 -127 68 -49 45 9 36 -38
125 94 -31 7 -3 30 -34 -18
-25 -22 -24 -25 31 59 38 -22
74 37 62 26 32 -17 16 -28
-43 11 6 -46 67 -2 10 18
-127 85 33 32 95 -13 -123 -10
-21 -25 66 -6 24 71 -36 80
-1 66 -2 -26 -42 -16 -16 110
-59 -21 51 -27 25 21 2 -127
-6 10 9 6 12 14 -12 -99
2 5 29 47 -7 -28 5 13
-69 26 35 -8 -48 -59 47 -20
00000000: 35ea ba3f a83c 0f84 04ea f020 007f e21f
00000010: 0de5 0ff1 ff27 0ce6 127a 190b cd29 bf98
00000020: 245f ddcc db1d df0c 1d64 df38 c804 edee
00000030: a750 0dbc dbd1 0dc8 33f3 0408 3711 8126
00000040: fc31 7fe1 19c6 06f7 fd12 1af7 fe56 ea21
00000050: 0e0b 150b f3a8 373a 2cdf acf3 d3d7 270d
00000060: 3a30 2681 073c fdf1 0522 1336 37a3 0f6d
00000070: a81d 081b 3431 0ed8 2e98 fa45 f537 13f8
00000080: 23f5 2026 891d b3e0 0901 fd27 2fe9 13fe
00000090: 0510 f8d7 e3ff 1222 002f 0a1a 7fe5 0242
000000a0: 2e81 44cf 2d09 24da 7d5e e107 fd1e deee
000000b0: e7ea e8e7 1f3b 26ea 4a25 3e1a 20ef 10e4
000000c0: d50b 06d2 43fe 0a12 8155 2120 5ff3 85f6
000000d0: ebe7 42fa 1847 dc50 ff42 fee6 d6f0 f06e
000000e0: c5eb 33e5 1915 0281 fa0a 0906 0c0e f49d
000000f0: 0205 1d2f f9e4 050d bb1a 23f8 d0c5 2fec

p_re_lu_5/p_re_lu_5/Alpha i1 [1, 1, 32] scale=0.006004531 zero_point=49
0.46835342 -0.74456185 0.45033982 -0.39029452 -0.09006797 -0.14410874 -0.72054374 -0.10207702
-0.20415404 -0.24618576 -0.7385573 0.066049844 -0.91869324 -0.51638967 -0.79259807 -0.87065697
-0.10207702 -0.5584214 -0.08406343 -0.6244712 -1.062802 0.10207702 -0.51638967 -0.87666154
0.39029452 -0.76257545 0.26419938 -0.06004531 -0.48636702 -0.22817218 -0.48036247 0.21015859
00000000: 7fb5 7cf0 2219 b920 0f08 b63c 98db ada0
00000010: 20d4 23c9 8042 db9f 72b2 5d27 e00b e154

depthwise_conv2d_5/depthwise_conv2d i1 [1, 3, 3, 32]
-46 -19 -98 89 89 -107 -127 61
100 44 -127 -73 -57 36 -64 67
-88 -23 24 -4 -45 0 -124 -55
82 40 104 24 64 -72 109 -5
19 -7 -108 57 108 -127 -101 94
79 123 -76 -92 24 -22 -49 127
-90 -11 86 -56 -100 -112 -68 -39
-27 18 72 29 127 -127 77 63
95 16 -99 18 35 -98 -50 84
-10 69 -25 -63 23 -44 -4 113
-63 28 127 -57 -79 -121 -100 -51
22 7 62 21 117 -90 82 58
26 -101 -112 127 58 -107 -64 86
109 63 -116 37 45 -38 -55 -15
-91 -92 65 -78 -59 0 -127 -76
-19 119 44 -52 50 -83 -6 104
55 -79 -127 49 127 -125 -40 127
27 127 -100 53 127 -102 31 -9
-44 -98 13 -94 -127 -50 -32 -127
-85 127 -32 -27 111 -114 10 109
104 -16 -63 8 51 -116 78 106
-111 114 1 23 87 -119 91 38
108 -32 46 -127 -89 -127 -47 -110
-58 47 -66 9 96 -110 -10 127
95 -127 -52 56 -13 -7 49 38
29 47 -45 88 46 -49 12 -77
-72 -92 5 -79 -37 66 -89 -43
-117 121 -107 -127 38 -16 -121 65
127 -97 -35 12 15 -106 101 60
-82 57 -30 127 101 -127 127 -108
8 -127 -44 -81 -60 3 -27 -110
-127 114 -103 -74 43 -23 -127 101
00000000: d2ed 9e59 5995 813d 642c 81b7 c724 c043
00000010: a8e9 18fc d300 84c9 5228 6818 40b8 6dfb
00000020: 13f9 9439 6c81 9b5e 4f7b b4a4 18ea cf7f
00000030: a6f5 56c8 9c90 bcd9 e512 481d 7f81 4d3f
00000040: 5f10 9d12 239e ce54 f645 e7c1 17d4 fc71
00000050: c11c 7fc7 b187 9ccd 1607 3e15 75a6 523a
00000060: 1a9b 907f 3a95 c056 6d3f 8c25 2dda c9f1
00000070: a5a4 41b2 c500 81b4 ed77 2ccc 32ad fa68
00000080: 37b1 8131 7f83 d87f 1b7f 9c35 7f9a 1ff7
00000090: d49e 0da2 81ce e081 ab7f e0e5 6f8e 0a6d
000000a0: 68f0 c108 338c 4e6a 9172 0117 5789 5b26
000000b0: 6ce0 2e81 a781 d192 c62f be09 6092 f67f
000000c0: 5f81 cc38 f3f9 3126 1d2f d358 2ecf 0cb3
000000d0: b8a4 05b1 db42 a7d5 8b79 9581 26f0 8741
000000e0: 7f9f dd0c 0f96 653c ae39 e27f 6581 7f94
000000f0: 0881 d4af c403 e592 8172 99b6 2be9 8165

conv2d_6/conv2d i1 [64, 1, 1, 32]
6 4 26 51 7 5 -21 -23
6 14 29 -31 -34 127 -47 10
-7 -4 -32 33 -4 13 -4 -16
2 -34 11 4 15 -28 -11 30
85 -61 36 115 -43 13 -18 -127
-5 73 66 8 -83 16 -28 -68
52 100 -36 -98 39 116 -123 -59
58 45 19 -77 -43 76 -68 53
22 -16 85 3 21 16 -43 -25
33 -30 -3 -127 -30 24 -14 -11
-23 115 50 68 1 -12 -34 -31
-26 -1 24 20 -67 25 31 28
-51 13 25 -53 21 -19 6 -55
9 -18 15 -127 -12 7 -46 -12
0 47 77 -92 -14 8 119 -18
58 19 4 60 -21 10 87 -53
4 114 75 -35 -79 7 3 38
-58 26 55 -2 -38 -50 -21 51
120 -11 -92 7 127 35 56 -12
46 9 -29 -24 -64 66 -59 23
-47 -56 3 11 -41 71 15 -20
18 57 61 -101 -43 -20 54 12
22 87 -101 -74 110 4 -10 -21
127 9 -17 29 -68 79 -4 -24
-28 15 24 -29 -14 17 127 32
26 34 63 -26 -15 -32 9 -21
-4 14 -64 -60 -5 11 1 -42
54 -73 -9 -14 15 67 -3 45
35 9 45 -31 -47 -87 -33 125
-14 -18 84 -1 -14 66 27 77
-2 127 -58 -12 -28 -85 -78 -20
59 -122 -99 -46 -19 -3 14 35
00000000: 0604 1a33 0705 ebe9 060e 1de1 de7f d10a
00000010: f9fc e021 fc0d fcf0 02de 0b04 0fe4 f51e
00000020: 55c3 2473 d50d ee81 fb49 4208 ad10 e4bc
00000030: 3464 dc9e 2774 85c5 3a2d 13b3 d54c bc35
00000040: 16f0 5503 1510 d5e7 21e2 fd81 e218 f2f5
00000050: e973 3244 01f4 dee1 e6ff 1814 bd19 1f1c
00000060: cd0d 19cb 15ed 06c9 09ee 0f81 f407 d2f4
00000070: 002f 4da4 f208 77ee 3a13 043c eb0a 57cb
00000080: 0472 4bdd b107 0326 c61a 37fe dace eb33
00000090: 78f5 a407 7f23 38f4 2e09 e3e8 c042 c517
000000a0: d1c8 030b d747 0fec 1239 3d9b d5ec 360c
000000b0: 1657 9bb6 6e04 f6eb 7f09 ef1d bc4f fce8
000000c0: e40f 18e3 f211 7f20 1a22 3fe6 f1e0 09eb
000000d0: fc0e c0c4 fb0b 01d6 36b7 f7f2 0f43 fd2d
000000e0: 2309 2de1 d1a9 df7d f2ee 54ff f242 1b4d
000000f0: fe7f c6f4 e4ab b2ec 3b86 9dd2 edfd 0e23

p_re_lu_6/p_re_lu_6/Alpha i1 [1, 1, 64] scale=0.008576384 zero_point=-47
0.27444428 -0.08576384 0.20583321 0.29159704 -0.13722214 0.22298598 0.69468707 -0.18010406
0.12006937 0.11149299 0.49743026 -0.077187456 0.18010406 0.43739557 0.06861107 1.4922907
0.48885387 0.56604135 -0.08576384 0.36878452 0.38593727 0.025729151 -0.09434022 0.24013874
0.18868044 -0.35163173 0.051458303 -0.102916606 1.1149299 0.51458305 0.34305537 0.051458303
-0.13722214 -0.27444428 0.0 -0.017152768 0.18010406 -0.38593727 -0.69468707 -0.06861107
-0.36020812 -0.24013874 0.017152768 0.008576384 0.15437491 0.017152768 -0.08576384 -0.36020812
0.16295129 0.59177047 -0.060034685 -0.12006937 0.060034685 -0.025729151 -0.06861107 0.57461774
-0.25729153 -0.24013874 0.18010406 -0.30017343 -0.30874982 -0.025729151 -0.35163173 -0.102916606
00000000: f1c7 e9f3 c1eb 22bc dfde 0bc8 e604 d97f
00000010: 0a13 c7fc fed4 c6ed e7a8 d7c5 530d f9d7
00000020: c1b1 d1cf e6a4 80c9 a7b5 d3d2 e3d3 c7a7
00000030: e416 cac3 d8ce c914 b3b5 e6ae adce a8c5

depthwise_conv2d_6/depthwise_conv2d i1 [1, 3, 3, 64]
63 64 67 49 89 -107 82 -23
-52 -29 127 23 -7 53 29 19
-68 118 -119 127 -127 -38 -96 51
-127 127 -94 64 -43 127 -63 -127
-127 -44 -1 -51 -31 -127 -61 23
23 39 3 47 -127 27 -1 -99
124 -84 127 65 -29 127 -74 27
97 45 127 -127 -13 25 -56 21
-4 -12 127 106 82 -9 47 -60
-23 -37 18 87 -68 127 6 -76
-87 76 -58 54 -3 -3 -94 -60
-123 47 -127 120 -18 91 -53 -33
-68 -17 -49 -78 -1 -96 -31 -33
-36 71 -2 38 -69 46 -124 -127
15 -34 -89 2 7 83 127 -33
-14 63 -79 -114 -64 -33 23 30
-44 39 124 127 -3 53 33 -44
47 39 48 -10 -36 92 101 -87
-74 102 6 -11 86 9 -70 10
21 4 -87 93 -15 -107 20 39
-28 -68 -22 -52 -20 -43 10 -29
127 11 -28 27 -1 -48 -88 -127
-39 109 -127 8 96 3 119 -26
37 56 65 -25 -14 -116 -64 69
101 127 31 -34 10 -125 36 -60
-58 -55 96 112 -10 21 23 127
-12 24 -127 37 -49 -60 13 127
25 83 -4 -51 -26 62 -53 -29
-23 -127 117 -52 -80 -57 -38 127
82 120 -76 100 75 73 -127 -73
-5 -25 99 -68 39 -7 64 95
82 -78 33 -50 49 88 13 98
00000000: 3f40 4331 5995 52e9 cce3 7f17 f935 1d13
00000010: bc76 897f 81da a033 817f a240 d57f c181
00000020: 81d4 ffcd e181 c317 1727 032f 811b ff9d
00000030: 7cac 7f41 e37f b61b 612d 7f81 f319 c815
00000040: fcf4 7f6a 52f7 2fc4 e9db 1257 bc7f 06b4
00000050: a94c c636 fdfd a2c4 852f 8178 ee5b cbdf
00000060: bcef cfb2 ffa0 e1df dc47 fe26 bb2e 8481
00000070: 0fde a702 0753 7fdf f23f b18e c0df 171e
00000080: d427 7c7f fd35 21d4 2f27 30f6 dc5c 65a9
00000090: b666 06f5 5609 ba0a 1504 a95d f195 1427
000000a0: e4bc eacc ecd5 0ae3 7f0b e41b ffd0 a881
000000b0: d96d 8108 6003 77e6 2538 41e7 f28c c045
000000c0: 657f 1fde 0a83 24c4 c6c9 6070 f615 177f
000000d0: f418 8125 cfc4 0d7f 1953 fccd e63e cbe3
000000e0: e981 75cc b0c7 da7f 5278 b464 4b49 81b7
000000f0: fbe7 63bc 27f9 405f 52b2 21ce 3158 0d62

conv2d_7/conv2d i1 [64, 1, 1, 64]
-63 60 -31 -15 -65 -5 7 -85
-13 -42 -35 43 100 13 -48 -58
-16 -46 -22 -30 -15 44 -16 24
5 41 -84 37 -24 -50 9 17
-22 -34 -74 1 -7 -16 -63 47
0 -16 -22 9 9 17 13 -33
127 -55 4 36 -80 -1 19 45
4 35 3 -20 -43 19 30 -81
4 -14 26 55 76 6 -32 -13
-50 33 6 14 48 3 0 -70
25 9 98 57 34 -18 24 30
16 -43 -127 7 -81 -56 46 53
66 22 -31 -84 -20 47 -76 14
-47 -24 56 -109 44 31 92 125
-53 -66 55 -25 -31 8 23 -6
31 -12 -16 -31 -52 37 28 55
3 44 38 15 -57 -90 -63 -16
-83 -42 -22 27 10 13 -91 48
-36 68 59 -6 -40 -32 -11 39
37 -81 35 8 -62 35 37 -9
45 50 79 -15 55 21 30 -73
20 -6 29 -67 -75 -92 82 10
76 -44 -127 98 -41 -35 -11 117
20 60 -8 58 -66 -68 54 -44
48 10 -2 -38 127 3 57 14
-23 2 33 -29 19 -13 -33 38
41 17 -9 -35 62 -31 -37 4
25 -19 26 -35 40 -70 -50 16
22 52 -50 -16 -21 -26 19 39
-12 56 100 9 46 4 -52 -10
2 27 0 37 -86 -11 8 16
-63 106 5 -9 21 -49 -6 -49
00000000: c13c e1f1 bffb 07ab f3d6 dd2b 640d d0c6
00000010: f0d2 eae2 f12c f018 0529 ac25 e8ce 0911
00000020: eade b601 f9f0 c12f 00f0 ea09 0911 0ddf
00000030: 7fc9 0424 b0ff 132d 0423 03ec d513 1eaf
00000040: 04f2 1a37 4c06 e0f3 ce21 060e 3003 00ba
00000050: 1909 6239 22ee 181e 10d5 8107 afc8 2e35
00000060: 4216 e1ac ec2f b40e d1e8 3893 2c1f 5c7d
00000070: cbbe 37e7 e108 17fa 1ff4 f0e1 cc25 1c37
00000080: 032c 260f c7a6 c1f0 add6 ea1b 0a0d a530
00000090: dc44 3bfa d8e0 f527 25af 2308 c223 25f7
000000a0: 2d32 4ff1 3715 1eb7 14fa 1dbd b5a4 520a
000000b0: 4cd4 8162 d7dd f575 143c f83a bebc 36d4
000000c0: 300a feda 7f03 390e e902 21e3 13f3 df26
000000d0: 2911 f7dd 3ee1 db04 19ed 1add 28ba ce10
000000e0: 1634 cef0 ebe6 1327 f438 6409 2e04 ccf6
000000f0: 021b 0025 aaf5 0810 c16a 05f7 15cf facf

p_re_lu_7/p_re_lu_7/Alpha i1 [1, 1, 64] scale=0.005785524 zero_point=-26
-0.38184458 -0.09256838 0.17356572 -0.040498666 0.27191964 -0.02892762 0.39341563 0.22563544
0.3876301 -0.17935124 -0.08678286 0.39341563 0.48019847 0.02892762 0.46862742 0.68847734
0.040498666 0.06942628 0.2950617 -0.42234325 0.31241828 -0.27770513 0.8851852 0.3182038
0.15042362 -0.33556038 0.09256838 -0.06942628 0.13306706 0.07521181 -0.06942628 -0.5264827
0.07521181 0.03471314 -0.063640766 0.33556038 -0.47441295 -0.35870248 -0.39920115 -0.12728153
-0.040498666 -0.22563544 -0.2661341 -0.30663276 -0.052069716 0.34713143 -0.35291696 -0.011571048
-0.5496248 0.4107722 -0.23142096 -0.5901234 -0.53805375 -0.19092229 -0.35870248 -0.10413943
-0.08678286 -0.08678286 -0.13306706 -0.12728153 -0.46284193 0.15042362 0.27770513 0.37605906
00000000: a4d6 04df 15e1 2a0d 29c7 d72a 39eb 375d
00000010: edf2 199d 1cb6 7f1d 00ac f6da fdf3 da8b
00000020: f3ec db20 94a8 a1d0 dfbf b8b1 dd22 a9e4
00000030: 872d be80 89c5 a8d4 d7d7 cfd0 9600 1627

depthwise_conv2d_7/depthwise_conv2d i1 [1, 3, 3, 64]
-8 40 32 26 -127 61 127 44
-76 22 -6 -19 -5 51 -24 127
81 -43 -126 -62 43 -43 19 -127
38 -57 -9 -25 127 -100 -96 -33
25 32 5 26 -101 97 127 16
-13 -90 46 -72 -41 -127 100 127
80 -85 16 95 -53 -59 -60 -37
-126 4 -85 -97 121 34 -116 31
109 -24 -127 -12 -72 -24 26 -11
-100 30 28 6 -88 121 -88 28
-3 -46 19 -76 58 21 -24 -56
46 -86 -22 -47 126 -100 -127 -105
57 52 86 -76 -37 100 120 18
-49 -127 2 51 -36 -67 68 97
57 -57 -87 95 -127 -127 102 24
-127 -127 -109 -50 12 -89 -27 8
54 -127 -46 -38 16 -34 8 -11
-51 104 -25 127 -15 -5 -107 -58
-80 -81 127 -66 15 -74 26 -92
6 -38 -44 -69 96 -127 -66 -57
37 14 101 -127 -43 127 88 2
-6 -51 -13 127 -82 36 -26 -108
0 -42 -127 28 -117 -106 73 127
-50 -106 -121 -4 18 -127 0 33
12 59 59 58 -112 44 98 127
-18 77 44 -41 76 53 70 45
60 -8 -31 -104 57 86 -4 -65
-97 0 37 -20 3 11 12 -38
-102 -42 41 -17 -78 -5 45 64
-11 -30 127 -43 51 2 127 88
31 -32 1 62 -51 37 -27 -113
26 -13 -25 -94 67 48 127 73
00000000: f828 201a 813d 7f2c b416 faed fb33 e87f
00000010: 51d5 82c2 2bd5 1381 26c7 f7e7 7f9c a0df
00000020: 1920 051a 9b61 7f10 f3a6 2eb8 d781 647f
00000030: 50ab 105f cbc5 c4db 8204 ab9f 7922 8c1f
00000040: 6de8 81f4 b8e8 1af5 9c1e 1c06 a879 a81c
00000050: fdd2 13b4 3a15 e8c8 2eaa ead1 7e9c 8197
00000060: 3934 56b4 db64 7812 cf81 0233 dcbd 4461
00000070: 39c7 a95f 8181 6618 8181 93ce 0ca7 e508
00000080: 3681 d2da 10de 08f5 cd68 e77f f1fb 95c6
00000090: b0af 7fbe 0fb6 1aa4 06da d4bb 6081 bec7
000000a0: 250e 6581 d57f 5802 facd f37f ae24 e694
000000b0: 00d6 811c 8b96 497f ce96 87fc 1281 0021
000000c0: 0c3b 3b3a 902c 627f ee4d 2cd7 4c35 462d
000000d0: 3cf8 e198 3956 fcbf 9f00 25ec 030b 0cda
000000e0: 9ad6 29ef b2fb 2d40 f5e2 7fd5 3302 7f58
000000f0: 1fe0 013e cd25 e58f 1af3 e7a2 4330 7f49

conv2d_8/conv2d i1 [64, 1, 1, 64]
-70 -17 -53 -25 -4 -5 -13 -127
-11 9 -15 -32 14 -15 -43 29
-32 -10 -11 0 -54 -33 -3 -20
-10 13 -39 -7 -5 -12 8 -18
6 -46 -28 -11 -47 29 -8 -27
-63 44 19 -61 -54 -51 -15 9
8 20 25 -18 -4 -12 -15 38
47 7 24 14 -8 19 14 3
4 12 24 -15 4 51 44 -67
46 17 -32 2 -57 69 -65 -14
-13 31 5 6 31 4 -11 15
-44 -37 62 -9 -33 22 43 -62
-34 36 4 50 13 35 58 -34
-52 -10 -69 -33 -68 -12 -127 -55
-9 31 57 -78 -20 43 -23 -24
-23 2 -9 39 -32 48 -48 -41
-23 60 50 28 -39 103 -16 -10
-53 -33 -35 -49 -27 -105 120 56
-42 -29 -6 -33 74 2 50 -18
-24 -42 -61 -29 55 64 -31 9
62 -11 105 -28 -13 -19 -61 -25
-65 46 -77 -11 -6 127 -19 -12
-15 -24 -49 -2 116 -28 -95 -48
16 -17 48 40 37 -95 47 55
-30 47 -24 124 -20 26 84 20
-42 -49 -13 1 -15 -118 -86 54
20 -22 -7 -13 22 -66 -105 46
-4 -16 11 -58 6 33 -127 51
43 126 21 -9 -126 -9 -1 68
-56 11 -73 -25 -26 81 -98 -65
76 8 17 -31 -22 53 -39 -11
10 27 57 18 3 -67 -37 -1
00000000: baef cbe7 fcfb f381 f509 f1e0 0ef1 d51d
00000010: e0f6 f500 cadf fdec f60d d9f9 fbf4 08ee
00000020: 06d2 e4f5 d11d f8e5 c12c 13c3 cacd f109
00000030: 0814 19ee fcf4 f126 2f07 180e f813 0e03
00000040: 040c 18f1 0433 2cbd 2e11 e002 c745 bff2
00000050: f31f 0506 1f04 f50f d4db 3ef7 df16 2bc2
00000060: de24 0432 0d23 3ade ccf6 bbdf bcf4 81c9
00000070: f71f 39b2 ec2b e9e8 e902 f727 e030 d0d7
00000080: e93c 321c d967 f0f6 cbdf ddcf e597 7838
00000090: d6e3 fadf 4a02 32ee e8d6 c3e3 3740 e109
000000a0: 3ef5 69e4 f3ed c3e7 bf2e b3f5 fa7f edf4
000000b0: f1e8 cffe 74e4 a1d0 10ef 3028 25a1 2f37
000000c0: e22f e87c ec1a 5414 d6cf f301 f18a aa36
000000d0: 14ea f9f3 16be 972e fcf0 0bc6 0621 8133
000000e0: 2b7e 15f7 82f7 ff44 c80b b7e7 e651 9ebf
000000f0: 4c08 11e1 ea35 d9f5 0a1b 3912 03bd dbff

p_re_lu_8/p_re_lu_8/Alpha i1 [1, 1, 64] scale=0.005254395 zero_point=30
0.031526368 0.3047549 -0.1944126 0.047289554 0.036780763 -0.199667 0.0998335 -0.399334
0.1944126 -0.0998335 0.1050879 0.33628127 -0.13661426 -0.44662356 -0.28373733 0.35729885
-0.13661426 -0.036780763 0.047289554 -0.6830713 -0.39407963 -0.28373733 0.23644777 -0.4939131
-0.4939131 0.11559669 -0.026271975 -0.036780763 -0.8301944 -0.18390381 -0.56747466 0.5096763
-0.4045884 -0.3888252 -0.43611476 -0.17339502 -0.2101758 0.031526368 -0.26271975 -0.36255324
-0.33102688 -0.47289553 -0.47289553 -0.5359483 -0.08932471 -0.26797414 -0.199667 -0.25746533
-0.17339502 0.063052736 -0.3047549 0.17339502 -0.24170217 0.12610547 -0.5622203 -0.2995005
-0.35204446 0.015763184 -0.56747466 -0.43611476 -0.063052736 0.18915822 -0.27322853 -0.15237746
00000000: 2458 f927 25f8 31d2 430b 325e 04c9 e862
00000010: 0417 279c d3e8 4bc0 c034 1917 80fb b27f
00000020: d1d4 cbfd f624 ecd9 dfc4 c4b8 0deb f8ed
00000030: fd2a e43f f036 b3e5 db21 b2cb 1242 ea01

depthwise_conv2d_8/depthwise_conv2d i1 [1, 3, 3, 64]
-24 -37 12 34 -7 34 -12 -58
25 -45 127 3 -6 -16 4 -80
39 -31 -49 108 10 -108 -127 -36
44 30 10 -7 -34 -74 -49 49
-57 86 31 15 20 2 -15 52
0 -74 -67 56 -123 15 -112 8
127 127 -85 -19 49 -46 127 24
92 -67 101 -76 -67 -6 -65 64
19 -69 85 89 -59 42 63 -41
-59 -65 84 65 -79 -61 70 -104
44 -106 -1 88 61 -109 -109 12
20 45 -127 103 -60 -22 -100 -28
-33 100 37 6 47 9 -90 113
-34 -116 -87 127 -118 3 -116 77
113 88 -34 -82 -45 -90 49 56
46 -93 83 -127 -105 -73 -92 127
63 -29 87 113 -25 17 127 -12
-86 13 56 90 -76 -32 87 -89
50 -70 -18 9 59 -50 -6 78
28 36 -78 117 -22 -1 -73 -127
-34 76 11 -15 80 -10 -127 72
28 -92 -38 87 -106 -15 -34 30
7 29 -17 -65 -59 -85 31 47
-7 10 56 -79 -60 -82 -50 114
-72 76 -29 71 -68 -98 -61 37
121 -13 70 -16 -14 96 47 -83
127 -86 -127 127 16 -66 -91 -37
127 56 125 -93 -104 -127 15 10
-127 107 127 -90 -102 62 20 13
-72 -127 -127 79 -17 -104 -127 -48
77 75 -43 -48 -77 35 112 -9
127 -84 123 -14 -73 -74 -125 -90
00000000: e8db 0c22 f922 f4c6 19d3 7f03 faf0 04b0
00000010: 27e1 cf6c 0a94 81dc 2c1e 0af9 deb6 cf31
00000020: c756 1f0f 1402 f134 00b6 bd38 850f 9008
00000030: 7f7f abed 31d2 7f18 5cbd 65b4 bdfa bf40
00000040: 13bb 5559 c52a 3fd7 c5bf 5441 b1c3 4698
00000050: 2c96 ff58 3d93 930c 142d 8167 c4ea 9ce4
00000060: df64 2506 2f09 a671 de8c a97f 8a03 8c4d
00000070: 7158 deae d3a6 3138 2ea3 5381 97b7 a47f
00000080: 3fe3 5771 e711 7ff4 aa0d 385a b4e0 57a7
00000090: 32ba ee09 3bce fa4e 1c24 b275 eaff b781
000000a0: de4c 0bf1 50f6 8148 1ca4 da57 96f1 de1e
000000b0: 071d efbf c5ab 1f2f f90a 38b1 c4ae ce72
000000c0: b84c e347 bc9e c325 79f3 46f0 f260 2fad
000000d0: 7faa 817f 10be a5db 7f38 7da3 9881 0f0a
000000e0: 816b 7fa6 9a3e 140d b881 814f ef98 81d0
000000f0: 4d4b d5d0 b323 70f7 7fac 7bf2 b7b6 83a6

conv2d_9/conv2d i1 [128, 1, 1, 64]
21 -12 -53 -54 19 23 13 13
23 -1 -19 -30 58 -20 -69 18
26 -26 -14 -25 -16 27 30 11
15 42 -86 19 99 -18 -57 28
-3 -50 39 60 -56 -53 60 -29
-99 29 53 24 52 56 8 -38
-10 -25 -7 -53 85 -58 -32 -4
-17 -11 49 -44 11 51 127 47
33 62 17 -22 -42 -109 42 126
92 88 -15 -1 -3 -3 -11 37
-88 50 28 18 -10 38 32 -5
28 -107 33 -106 -32 35 38 -16
91 -85 31 -11 -55 65 40 -33
76 7 127 -61 -54 -28 -10 3
-50 50 -32 53 35 112 -38 -5
-41 -45 -46 61 93 -13 54 -49
-54 27 -37 74 -6 6 -2 -13
-127 25 -41 -61 32 38 -19 80
-10 78 38 -24 80 12 29 41
34 -44 -29 57 0 84 -32 -48
51 -23 0 64 74 61 -24 -54
13 52 81 -72 41 13 -1 -21
-33 -41 -23 -24 -43 25 -92 -7
-90 71 -121 -28 46 -35 56 -24
127 31 58 -12 -34 -12 -3 -91
88 68 -13 7 -1 -54 -88 -84
25 75 28 101 -15 1 -9 -33
-44 101 72 -46 118 25 30 -60
41 -7 -90 -57 5 -85 120 -88
47 41 12 -28 -20 34 118 -26
7 119 17 101 -32 37 -82 26
-31 54 -54 -3 17 -12 -12 78
00000000: 15f4 cbca 1317 0d0d 17ff ede2 3aec bb12
00000010: 1ae6 f2e7 f01b 1e0b 0f2a aa13 63ee c71c
00000020: fdce 273c c8cb 3ce3 9d1d 3518 3438 08da
00000030: f6e7 f9cb 55c6 e0fc eff5 31d4 0b33 7f2f
00000040: 213e 11ea d693 2a7e 5c58 f1ff fdfd f525
00000050: a832 1c12 f626 20fb 1c95 2196 e023 26f0
00000060: 5bab 1ff5 c941 28df 4c07 7fc3 cae4 f603
00000070: ce32 e035 2370 dafb d7d3 d23d 5df3 36cf
00000080: ca1b db4a fa06 fef3 8119 d7c3 2026 ed50
00000090: f64e 26e8 500c 1d29 22d4 e339 0054 e0d0
000000a0: 33e9 0040 4a3d e8ca 0d34 51b8 290d ffeb
000000b0: dfd7 e9e8 d519 a4f9 a647 87e4 2edd 38e8
000000c0: 7f1f 3af4 def4 fda5 5844 f307 ffca a8ac
000000d0: 194b 1c65 f101 f7df d465 48d2 7619 1ec4
000000e0: 29f9 a6c7 05ab 78a8 2f29 0ce4 ec22 76e6
000000f0: 0777 1165 e025 ae1a e136 cafd 11f4 f44e

p_re_lu_9/p_re_lu_9/Alpha i1 [1, 1, 128] scale=0.005236646 zero_point=-11
-0.047129817 0.12567951 0.21470249 0.21993914 0.4189317 0.35609195 0.50271803 -0.07854969
0.4451149 0.20946585 0.67552733 0.23564908 0.49748138 0.12567951 -0.18328261 -0.02618323
0.22517578 -0.21993914 0.21993914 0.11520621 0.18328261 0.43464163 0.60221434 -0.25659567
0.25135902 -0.17804597 0.27754223 0.26706895 0.48177144 0.12044286 0.07331304 0.14662609
-0.25135902 -0.05236646 -0.4870081 0.54984784 -0.49224475 0.28801554 0.31419876 0.24612238
0.0680764 0.17280932 0.031419877 -0.25659567 0.047129817 0.49224475 0.22517578 0.11520621
-0.062839754 0.25135902 0.18328261 -0.03665652 -0.14138944 0.2827789 0.2827789 0.19375591
0.16757268 -0.05236646 0.057603106 0.07854969 0.5760311 0.29848883 0.2042292 0.12567951
-0.5760311 0.11520621 0.31419876 -0.17280932 -0.14662609 -0.30896214 -0.18328261 -0.08902299
0.31419876 -0.36132857 -0.6126876 0.057603106 -0.35609195 -0.16233604 0.21993914 -0.15709938
0.18328261 -0.11520621 0.25659567 0.2723056 -0.04189317 0.58650434 0.4451149 0.56032115
-0.07854969 0.21470249 -0.0680764 0.10996957 0.10473292 -0.28801554 -0.33514535 0.19375591
-0.15186274 -0.16757268 -0.18851927 -0.20946585 -0.45035157 0.47129816 0.47129816 -0.0680764
0.3508553 0.015709938 -0.057603106 -0.26706895 0.12567951 0.04189317 0.32467207 -0.21470249
-0.03665652 0.07331304 -0.30896214 -0.4189317 0.56032115 0.07854969 0.11520621 -0.16757268
0.21470249 0.23041242 -0.19899255 0.16757268 0.031419877 0.05236646 0.5812677 0.72265714
00000000: ec0d 1e1f 4539 55e6 4a1d 7622 540d d2f0
00000010: 20cb 1f0b 1848 68c4 25d3 2a28 510c 0311
00000020: c5eb 985e 972c 3124 0216 fbc4 fe53 200b
00000030: e925 18ee da2b 2b1a 15eb 0004 632e 1c0d
00000040: 870b 31d4 d9ba d2e4 31b0 8000 b1d6 1fd7
00000050: 18df 2629 ed65 4a60 e61e e80a 09be b51a
00000060: d8d5 d1cd 9f4f 4fe8 38f8 eac2 0dfd 33cc
00000070: ee03 baa5 6004 0bd5 1e21 cf15 fbff 647f

depthwise_conv2d_9/depthwise_conv2d i1 [1, 3, 3, 128]
47 -3 127 127 -127 44 70 4
46 -127 85 -127 -73 -113 -20 -32
43 -58 -127 95 74 -55 -20 127
9 -68 127 -59 -21 -127 -108 101
-127 -37 -114 17 -53 127 -127 -80
127 25 127 15 -109 7 -81 92
-59 33 82 104 -28 75 -27 43
127 38 -127 127 15 127 51 -32
-125 -14 20 -102 -61 -14 17 111
-127 127 -127 31 -116 -26 -49 -18
-33 127 127 24 24 93 -80 -127
127 -22 -42 -41 -53 -100 39 43
-20 23 -8 -54 70 33 92 -127
70 127 -13 -127 -32 42 -30 27
3 118 93 -119 36 -48 -28 93
-53 -108 64 93 -50 71 -98 76
68 10 13 -1 -32 29 -17 -4
16 87 3 16 117 -85 -98 -69
14 93 14 -35 127 38 -78 76
-63 -49 3 -31 62 -52 -51 127
-112 -67 -78 17 40 47 -30 50
12 78 37 89 -72 -127 -12 -8
63 94 -73 -36 23 25 1 -53
-22 -8 -28 -55 0 89 52 31
-36 -66 10 -1 -27 -91 16 91
-40 -31 -48 -99 -107 9 -31 106
-2 103 44 -82 20 73 -48 -29
63 -27 -127 37 18 -46 -37 -6
-34 84 38 -63 70 -11 2 -35
14 41 16 -37 -51 -5 -92 -64
-44 -12 -110 78 20 9 -19 117
-58 -127 26 59 -8 -127 -99 67
00000000: 2ffd 7f7f 812c 4604 2e81 5581 b78f ece0
00000010: 2bc6 815f 4ac9 ec7f 09bc 7fc5 eb81 9465
00000020: 81db 8e11 cb7f 81b0 7f19 7f0f 9307 af5c
00000030: c521 5268 e44b e52b 7f26 817f 0f7f 33e0
00000040: 83f2 149a c3f2 116f 817f 811f 8ce6 cfee
00000050: df7f 7f18 185d b081 7fea d6d7 cb9c 272b
00000060: ec17 f8ca 4621 5c81 467f f381 e02a e21b
00000070: 0376 5d89 24d0 e45d cb94 405d ce47 9e4c
00000080: 440a 0dff e01d effc 1057 0310 75ab 9ebb
00000090: 0e5d 0edd 7f26 b24c c1cf 03e1 3ecc cd7f
000000a0: 90bd b211 282f e232 0c4e 2559 b881 f4f8
000000b0: 3f5e b7dc 1719 01cb eaf8 e4c9 0059 341f
000000c0: dcbe 0aff e5a5 105b d8e1 d09d 9509 e16a
000000d0: fe67 2cae 1449 d0e3 3fe5 8125 12d2 dbfa
000000e0: de54 26c1 46f5 02dd 0e29 10db cdfb a4c0
000000f0: d4f4 924e 1409 ed75 c681 1a3b f881 9d43

conv2d_10/conv2d i1 [128, 1, 1, 128]
-25 -121 41 33 -59 1 -96 -46
-39 -19 11 -3 -10 -4 -12 90
-26 6 61 51 -12 49 -30 78
-70 14 -38 67 13 -29 -7 -19
-59 17 -84 -47 38 3 46 1
-12 -24 -36 -1 25 7 13 1
-31 40 37 20 22 -51 21 -43
-46 0 38 5 -8 28 4 81
0 29 -5 -63 -47 -46 127 42
-8 -28 -40 -76 -10 -103 -6 14
-7 -45 14 77 16 -62 -50 9
-28 -97 -24 -41 -23 35 -45 -65
-27 66 -6 -10 -15 -10 -83 -28
-1 -23 -85 -16 34 -73 78 2
3 -5 -16 19 -41 -78 67 -26
-38 65 67 12 7 17 -2 91
-34 -24 16 21 -55 18 20 78
-44 -17 30 28 -40 48 7 -6
-19 15 73 -12 17 3 -7 7
-29 32 -15 25 48 -51 43 -32
-28 -43 -7 48 -53 -6 -9 -14
0 -28 12 0 -13 105 -12 7
24 -24 46 26 -49 -36 21 -8
12 3 28 23 -37 39 98 -17
-48 -61 -38 33 19 -34 -17 -38
-7 12 -10 45 -13 3 -11 32
2 -30 3 13 3 -46 51 -43
56 37 19 16 42 -1 23 -3
52 16 9 -26 3 18 8 24
-69 -37 23 -9 -7 -127 9 -18
26 33 1 23 57 35 -78 -34
44 23 -19 30 43 19 3 -32
00000000: e787 2921 c501 a0d2 d9ed 0bfd f6fc f45a
00000010: e606 3d33 f431 e24e ba0e da43 0de3 f9ed
00000020: c511 acd1 2603 2e01 f4e8 dcff 1907 0d01
00000030: e128 2514 16cd 15d5 d200 2605 f81c 0451
00000040: 001d fbc1 d1d2 7f2a f8e4 d8b4 f699 fa0e
00000050: f9d3 0e4d 10c2 ce09 e49f e8d7 e923 d3bf
00000060: e542 faf6 f1f6 ade4 ffe9 abf0 22b7 4e02
00000070: 03fb f013 d7b2 43e6 da41 430c 0711 fe5b
00000080: dee8 1015 c912 144e d4ef 1e1c d830 07fa
00000090: ed0f 49f4 1103 f907 e320 f119 30cd 2be0
000000a0: e4d5 f930 cbfa f7f2 00e4 0c00 f369 f407
000000b0: 18e8 2e1a cfdc 15f8 0c03 1c17 db27 62ef
000000c0: d0c3 da21 13de efda f90c f62d f303 f520
000000d0: 02e2 030d 03d2 33d5 3825 1310 2aff 17fd
000000e0: 3410 09e6 0312 0818 bbdb 17f7 f981 09ee
000000f0: 1a21 0117 3923 b2de 2c17 ed1e 2b13 03e0

p_re_lu_10/p_re_lu_10/Alpha i1 [1, 1, 128] scale=0.0045948816 zero_point=-33
0.48246256 -0.15622598 0.041353934 -0.427324 0.16082086 -0.17920038 -0.14244133 0.26190826
0.24352872 0.27109802 0.073518105 -0.31245196 0.5192216 0.18379526 0.49165234 -0.23893385
0.22974408 0.16541573 0.1746055 0.073518105 0.2986673 0.54219604 -0.05973346 0.33083147
0.12865669 -0.18839015 0.15622598 0.5743602 0.6294988 0.022974407 -0.018379526 0.38597006
0.009189763 0.06892322 0.33083147 -0.3721854 0.41353935 0.28947753 0.35840076 0.16082086
0.0045948816 0.30785707 -0.3997547 0.05513858 0.28947753 -0.0045948816 0.3951598 0.14703621
0.013784645 0.02756929 0.3997547 0.20676968 0.0045948816 -0.009189763 0.5559807 -0.36759052
0.34002122 0.3216417 0.54219604 0.25271848 0.3951598 0.050543696 -0.045948815 -0.03216417
-0.43651375 -0.11946692 0.23433895 0.5008421 -0.08730275 0.18839015 0.14244133 0.15163109
0.2481236 -0.19298503 -0.18839015 -0.33083147 -0.36299565 0.036759052 -0.30785707 0.1975799
-0.19298503 -0.34461612 0.50543696 -0.11027716 0.1746055 0.25271848 -0.0045948816 0.073518105
-0.28488266 0.6019295 -0.022974407 -0.25731337 -0.12865669 -0.022974407 0.09189763 -0.073518105
-0.1746055 -0.09189763 0.70761174 0.73518103 -0.28947753 -0.11027716 -0.43651375 0.050543696
-0.23893385 -0.36759052 -0.39056492 -0.1975799 -0.08730275 0.17001061 0.02756929 0.022974407
0.40434957 -0.24352872 -0.30326217 0.4181342 0.5192216 -0.11027716 0.13784644 -0.11946692
-0.34002122 -0.34002122 -0.05513858 0.34461612 0.33083147 -0.35380587 -0.036759052 -0.19298503
00000000: 48bd e882 02b8 c018 141a ef9b 5007 4aab
00000010: 1103 05ef 2055 d227 fbb6 015c 68e4 db33
00000020: e1ee 278e 391e 2d02 e022 88eb 1ede 35ff
00000030: e2e5 360c e0dd 588f 2925 5516 35ea d5d8
00000040: 80c5 124c cc08 fe00 15b5 b697 90e7 9c0a
00000050: b594 4dc7 0516 deef a162 daa7 c3da f3cf
00000060: b9cb 797f a0c7 80ea ab8f 8ab4 cc04 e5e4
00000070: 37aa 9d3a 50c7 fdc5 9595 d32a 2792 d7b5

depthwise_conv2d_10/depthwise_conv2d i1 [1, 3, 3, 128]
20 14 26 -38 -80 27 -31 53
42 -50 127 103 -127 127 -41 -127
15 51 123 -66 127 -19 55 -19
-127 14 -88 -68 29 72 -24 76
-63 -60 88 28 82 22 -127 49
42 -127 93 -44 -64 -43 123 -96
-7 32 62 -59 -11 -70 -32 -45
-1 -10 -15 -32 -60 -127 103 -73
-64 -39 -83 -64 35 127 -127 84
-32 -57 -127 -87 65 7 -77 127
-80 20 127 -15 71 -85 -114 -90
45 127 127 -3 28 -127 0 -127
-91 127 -127 -18 -51 79 -18 -124
-9 23 -2 -37 51 35 42 -90
54 -15 -55 19 75 0 13 -127
-66 127 86 58 -57 -94 72 92
-37 22 34 -45 1 -14 -127 19
17 28 27 127 -14 9 -65 -38
38 -32 -33 14 70 -7 47 42
-100 -35 74 54 56 -9 4 -8
-72 -4 109 19 34 -50 45 -23
-7 -3 -16 -32 28 38 -18 -25
-30 -14 -8 29 64 -43 13 -127
-6 30 14 42 102 -86 127 -2
0 19 -35 1 29 37 -42 30
35 -49 -54 -127 -1 18 -127 59
-127 114 -7 47 37 -20 -88 36
-9 73 100 -71 -35 -46 58 -70
55 -66 -43 -32 -15 44 -44 -127
-18 -8 -45 -70 63 -19 7 -122
48 67 3 127 -10 -72 64 -14
-87 67 62 39 0 -89 100 46
00000000: 140e 1ada b01b e135 2ace 7f67 817f d781
00000010: 0f33 7bbe 7fed 37ed 810e a8bc 1d48 e84c
00000020: c1c4 581c 5216 8131 2a81 5dd4 c0d5 7ba0
00000030: f920 3ec5 f5ba e0d3 fff6 f1e0 c481 67b7
00000040: c0d9 adc0 237f 8154 e0c7 81a9 4107 b37f
00000050: b014 7ff1 47ab 8ea6 2d7f 7ffd 1c81 0081
00000060: a57f 81ee cd4f ee84 f717 fedb 3323 2aa6
00000070: 36f1 c913 4b00 0d81 be7f 563a c7a2 485c
00000080: db16 22d3 01f2 8113 111c 1b7f f209 bfda
00000090: 26e0 df0e 46f9 2f2a 9cdd 4a36 38f7 04f8
000000a0: b8fc 6d13 22ce 2de9 f9fd f0e0 1c26 eee7
000000b0: e2f2 f81d 40d5 0d81 fa1e 0e2a 66aa 7ffe
000000c0: 0013 dd01 1d25 d61e 23cf ca81 ff12 813b
000000d0: 8172 f92f 25ec a824 f749 64b9 ddd2 3aba
000000e0: 37be d5e0 f12c d481 eef8 d3ba 3fed 0786
000000f0: 3043 037f f6b8 40f2 a943 3e27 00a7 642e

conv2d_11/conv2d i1 [128, 1, 1, 128]
10 20 -22 -9 9 60 18 -9
-17 34 -9 51 -11 -111 -46 -19
33 -5 16 -31 -52 -41 -26 -22
36 37 63 16 -24 -36 -47 -21
-13 -4 1 31 19 2 -37 -18
28 -38 0 -67 81 -1 18 1
-21 -64 1 -25 -111 -3 -32 1
39 59 -23 71 79 14 -19 37
6 -49 22 9 -17 -41 55 16
4 -14 60 -22 16 -32 21 1
5 -29 7 -18 17 -6 -108 -37
-45 -75 38 38 -37 26 67 -62
-8 48 -3 80 -5 -100 45 17
12 45 -9 -37 70 -13 25 15
50 -10 -19 -72 -43 31 -89 9
-60 -127 -75 -28 23 46 -95 -37
-1 127 19 -7 -8 25 -4 -35
4 -18 6 14 10 2 -13 -9
-7 -17 -18 -11 38 5 33 -1
-2 -13 4 13 0 -15 -27 7
-10 26 -4 -5 29 -11 -29 -4
-13 41 31 4 -26 2 -2 -25
-34 15 -36 -43 34 -10 -2 -35
-16 -28 -5 -4 -17 -33 -7 -27
-3 -7 -6 30 -15 15 22 14
-1 33 -26 14 37 -10 22 -36
20 -25 -28 -5 -7 17 3 -22
-8 4 -9 40 12 -2 15 -7
-3 -29 -17 -70 3 1 -7 16
10 -11 -1 -9 -3 2 11 -10
-5 -12 -16 -5 16 -25 -56 9
-14 -31 23 10 21 -17 10 15
00000000: 0a14 eaf7 093c 12f7 ef22 f733 f591 d2ed
00000010: 21fb 10e1 ccd7 e6ea 2425 3f10 e8dc d1eb
00000020: f3fc 011f 1302 dbee 1cda 00bd 51ff 1201
00000030: ebc0 01e7 91fd e001 273b e947 4f0e ed25
00000040: 06cf 1609 efd7 3710 04f2 3cea 10e0 1501
00000050: 05e3 07ee 11fa 94db d3b5 2626 db1a 43c2
00000060: f830 fd50 fb9c 2d11 0c2d f7db 46f3 190f
00000070: 32f6 edb8 d51f a709 c481 b5e4 172e a1db
00000080: ff7f 13f9 f819 fcdd 04ee 060e 0a02 f3f7
00000090: f9ef eef5 2605 21ff fef3 040d 00f1 e507
000000a0: f61a fcfb 1df5 e3fc f329 1f04 e602 fee7
000000b0: de0f dcd5 22f6 fedd f0e4 fbfc efdf f9e5
000000c0: fdf9 fa1e f10f 160e ff21 e60e 25f6 16dc
000000d0: 14e7 e4fb f911 03ea f804 f728 0cfe 0ff9
000000e0: fde3 efba 0301 f910 0af5 fff7 fd02 0bf6
000000f0: fbf4 f0fb 10e7 c809 f2e1 170a 15ef 0a0f

p_re_lu_11/p_re_lu_11/Alpha i1 [1, 1, 128] scale=0.004719617 zero_point=22
-0.221822 -0.09439234 -0.113270804 0.122710034 -0.5285971 -0.14158851 -0.122710034 -0.35397127
-0.08967272 -0.3634105 -0.5521952 -0.23598084 -0.20766315 -0.45308322 -0.42476553 -0.070794255
0.31621432 -0.42476553 -0.32565355 -0.25013968 -0.6418679 -0.37756935 -0.16046697 -0.3114947
-0.1699062 -0.33509278 -0.35397127 -0.3964478 -0.23598084 -0.09911195 -0.29261625 -0.3586909
-0.16518658 -0.28317702 -0.6465875 -0.24070045 0.1982239 -0.20766315 -0.26429856 -0.45308322
-0.21710238 -0.03303732 -0.25013968 0.49555978 -0.2548593 -0.1699062 -0.1982239 -0.17462583
0.10855119 -0.40116742 -0.45308322 -0.40116742 -0.34453204 -0.31621432 -0.04719617 -0.45308322
-0.5521952 -0.48612052 -0.20766315 0.15574735 -0.35397127 -0.2548593 -0.24070045 -0.28317702
-0.221822 -0.34453204 -0.2548593 -0.11799042 -0.49555978 -0.6135502 -0.57579327 -0.32093394
-0.43892437 -0.45780283 -0.6985033 -0.3067751 0.3964478 -0.3917282 0.04719617 -0.53803635
-0.6135502 -0.4153263 -0.07551387 -0.23598084 -0.18406506 -0.19350429 -0.20294352 -0.5805129
-0.46724206 -0.22654161 -0.42476553 -0.6937837 -0.122710034 -0.3964478 -0.25013968 0.04719617
-0.49084014 0.15102774 -0.1368689 -0.20766315 -0.103831574 -0.2548593 -0.35397127 -0.20766315
-0.60411096 0.20766315 -0.3067751 0.28317702 -0.19350429 -0.2595789 -0.20766315 -0.26901817
-0.061355017 0.16046697 -0.32093394 -0.113270804 -0.23598084 -0.25013968 -0.2737378 -0.46724206
-0.32565355 -0.70794255 -0.28317702 -0.07551387 0.014158851 -0.1368689 -0.17462583 -0.3114947
00000000: e702 fe30 a6f8 fccb 03c9 a1e4 eab6 bc07
00000010: 59bc d1e1 8ec6 f4d4 f2cf cbc2 e401 d8ca
00000020: f3da 8de3 40ea deb6 e80f e17f e0f2 ecf1
00000030: 2dc1 b6c1 cdd3 0cb6 a1af ea37 cbe0 e3da
00000040: e7cd e0fd ad94 9cd2 b9b5 82d5 6ac3 20a4
00000050: 94be 06e4 efed eb9b b3e6 bc83 fcc2 e120
00000060: ae36 f9ea 00e0 cbea 9642 d552 eddf eadd
00000070: 0938 d2fe e4e1 dcb3 d180 da06 19f9 f1d4

depthwise_conv2d_11/depthwise_conv2d i1 [1, 3, 3, 128]
-9 42 -99 44 -55 23 72 -79
-25 84 -51 -98 -8 -7 17 44
-77 1 -54 75 93 -49 -115 114
50 115 127 24 10 -127 -127 -125
28 50 72 110 22 2 -7 38
-15 13 29 -9 -16 35 14 -127
68 6 127 92 34 -92 67 -100
86 -127 23 127 -60 -47 24 -8
-127 -12 -44 21 -79 70 -117 74
-40 34 100 -3 106 1 17 119
-89 -66 -2 84 -66 -55 40 37
86 -16 75 -43 71 15 -85 1
70 88 103 106 38 -74 -25 -127
-51 20 42 6 90 -72 -35 13
10 -33 94 69 -19 -43 -84 -63
-125 101 25 -55 -23 88 26 53
75 127 -53 127 52 1 94 -108
-44 -7 -89 -127 -89 11 -6 -113
-45 1 -66 126 127 -127 -43 -38
45 127 77 -37 -127 -37 -83 -123
100 43 -93 47 127 117 -15 5
-80 -33 8 -127 -125 9 36 -104
30 21 94 127 -127 -86 121 -85
101 -119 20 -39 -99 -101 52 -66
-43 -25 -13 21 -112 108 -127 122
32 127 127 100 -10 4 6 127
-73 -127 45 30 -35 -75 21 108
74 -5 -22 -104 6 18 -91 -118
125 109 109 69 120 -127 -44 -90
34 31 74 73 24 -127 -12 -127
58 17 82 109 -37 3 -127 -98
-122 127 45 -82 29 99 -50 67
00000000: f72a 9d2c c917 48b1 e754 cd9e f8f9 112c
00000010: b301 ca4b 5dcf 8d72 3273 7f18 0a81 8183
00000020: 1c32 486e 1602 f926 f10d 1df7 f023 0e81
00000030: 4406 7f5c 22a4 439c 5681 177f c4d1 18f8
00000040: 81f4 d415 b146 8b4a d822 64fd 6a01 1177
00000050: a7be fe54 bec9 2825 56f0 4bd5 470f ab01
00000060: 4658 676a 26b6 e781 cd14 2a06 5ab8 dd0d
00000070: 0adf 5e45 edd5 acc1 8365 19c9 e958 1a35
00000080: 4b7f cb7f 3401 5e94 d4f9 a781 a70b fa8f
00000090: d301 be7e 7f81 d5da 2d7f 4ddb 81db ad85
000000a0: 642b a32f 7f75 f105 b0df 0881 8309 2498
000000b0: 1e15 5e7f 81aa 79ab 6589 14d9 9d9b 34be
000000c0: d5e7 f315 906c 817a 207f 7f64 f604 067f
000000d0: b781 2d1e ddb5 156c 4afb ea98 0612 a58a
000000e0: 7d6d 6d45 7881 d4a6 221f 4a49 1881 f481
000000f0: 3a11 526d db03 819e 867f 2dae 1d63 ce43
