tools/tinyml_generator/model/yolo_person_detect.tflite (tflite, 227600 bytes, 44 tensors)

model/conv2d_29/Conv2D;StatefulPartitionedCall/model/conv2d_29/Conv2D i1 [18, 1, 1, 120]
000000 2d 0b 30 0e cb 82 fc 32 bd 1c 17 e5 32 9b 03 3b
       45 11 48 14 -53 -126 -4 50 -67 28 23 -27 50 -101 3 59
000010 36 04 37 11 e8 d5 f3 e5 04 3b 0d c3 0f f9 1e ce
       54 4 55 17 -24 -43 -13 -27 4 59 13 -61 15 -7 30 -50
000020 fc 23 47 01 00 0d 3c 12 09 d1 e7 b6 f6 6c eb ef
       -4 35 71 1 0 13 60 18 9 -47 -25 -74 -10 108 -21 -17
000030 09 81 f1 78 05 bf 00 ca 11 f1 de 11 dd 09 1d 04
       9 -127 -15 120 5 -65 0 -54 17 -15 -34 17 -35 9 29 4
000040 df c8 04 14 48 58 f9 f5 30 ee d4 15 e5 fc 69 0c
       -33 -56 4 20 72 88 -7 -11 48 -18 -44 21 -27 -4 105 12
000050 4f ff 26 84 f1 ca e9 10 f9 19 17 08 ee 8a 21 c8
       79 -1 38 -124 -15 -54 -23 16 -7 25 23 8 -18 -118 33 -56
000060 82 4a 01 45 67 03 06 07 f0 1a e2 27 06 45 17 59
       -126 74 1 69 103 3 6 7 -16 26 -30 39 6 69 23 89
000070 cd 00 2c 1c 13 06 3c e7 c1 04 f5 18 eb ec 05 8c
       -51 0 44 28 19 6 60 -25 -63 4 -11 24 -21 -20 5 -116
000080 f1 f6 00 81 f4 19 f9 06 fe be 2a ff 2b 23 fc 06
       -15 -10 0 -127 -12 25 -7 6 -2 -66 42 -1 43 35 -4 6
000090 fe 0d 1b 3f 31 0b e4 1b 02 1e d6 dc f6 15 96 f2
       -2 13 27 63 49 11 -28 27 2 30 -42 -36 -10 21 -106 -14
0000a0 20 1a 36 d6 fd 55 c6 04 f1 ac e4 fa e4 06 0d 0c
       32 26 54 -42 -3 85 -58 4 -15 -84 -28 -6 -28 6 13 12
0000b0 db 1c d9 ea c5 f0 34 23 da d5 09 02 ea 51 01 f5
       -37 28 -39 -22 -59 -16 52 35 -38 -43 9 2 -22 81 1 -11
0000c0 0f 00 4c f6 2c e5 ac 07 17 05 e5 40 c3 bd 06 0e
       15 0 76 -10 44 -27 -84 7 23 5 -27 64 -61 -67 6 14
0000d0 d7 fd 15 f1 3b 1a 18 0b c6 a7 da 1a d1 1d e6 35
       -41 -3 21 -15 59 26 24 11 -58 -89 -38 26 -47 29 -26 53
0000e0 e9 d4 e3 25 07 27 0a a4 21 51 40 1c c0 fe 46 f5
       -23 -44 -29 37 7 39 10 -92 33 81 64 28 -64 -2 70 -11
0000f0 de 05 04 f5 df f7 0b 81 f0 ed 07 1f 08 02 0f 2a
       -34 5 4 -11 -33 -9 11 -127 -16 -19 7 31 8 2 15 42

model/conv2d_28/Conv2D;StatefulPartitionedCall/model/conv2d_28/Conv2D i1 [120, 1, 1, 120]
000000 f9 08 d9 ec fa e4 c3 0d e3 ed cc 19 eb f1 e1 f3
       -7 8 -39 -20 -6 -28 -61 13 -29 -19 -52 25 -21 -15 -31 -13
000010 05 e7 d9 30 e3 e2 f2 db e4 14 f6 2c 00 0a ea 1b
       5 -25 -39 48 -29 -30 -14 -37 -28 20 -10 44 0 10 -22 27
000020 e9 d8 d8 ec ee 28 fd 0a 24 e6 26 fb 2d e8 dc 02
       -23 -40 -40 -20 -18 40 -3 10 36 -26 38 -5 45 -24 -36 2
000030 f7 e8 0f c0 db 19 32 0e ec e9 01 a7 f4 1e f7 ff
       -9 -24 15 -64 -37 25 50 14 -20 -23 1 -89 -12 30 -9 -1
000040 dd 07 f7 11 03 f9 81 fd 12 c6 cc 12 e3 1b d9 0d
       -35 7 -9 17 3 -7 -127 -3 18 -58 -52 18 -29 27 -39 13
000050 ee f4 00 29 02 d1 dc 0d 0b 44 39 fa dd d6 ea fd
       -18 -12 0 41 2 -47 -36 13 11 68 57 -6 -35 -42 -22 -3
000060 04 04 07 1d 90 d0 c8 36 fe 16 21 eb e4 34 d9 c6
       4 4 7 29 -112 -48 -56 54 -2 22 33 -21 -28 52 -39 -58
000070 09 04 3e 3e 06 10 14 8c fd f9 00 e2 0d e2 2b fc
       9 4 62 62 6 16 20 -116 -3 -7 0 -30 13 -30 43 -4
000080 ca d0 08 08 ff 00 1f 0b 1f 02 07 1a e9 18 25 da
       -54 -48 8 8 -1 0 31 11 31 2 7 26 -23 24 37 -38
000090 f7 02 f3 1c 08 02 ef f8 f2 01 11 f4 14 37 f7 12
       -9 2 -13 28 8 2 -17 -8 -14 1 17 -12 20 55 -9 18
0000a0 fd 1b f1 ec e1 11 14 11 12 e9 ea d5 ed 59 25 e9
       -3 27 -15 -20 -31 17 20 17 18 -23 -22 -43 -19 89 37 -23
0000b0 09 04 e9 07 fb 45 fe 03 f8 09 f0 38 12 04 e8 f7
       9 4 -23 7 -5 69 -2 3 -8 9 -16 56 18 4 -24 -9
0000c0 fe ec f3 0b f5 fd ff 04 0c da 39 03 ed df 23 fe
       -2 -20 -13 11 -11 -3 -1 4 12 -38 57 3 -19 -33 35 -2
0000d0 f5 7f 09 f5 d4 02 04 09 f7 02 0d e6 fc 09 23 f4
       -11 127 9 -11 -44 2 4 9 -9 2 13 -26 -4 9 35 -12
0000e0 02 10 07 06 fc 17 f7 00 26 df 02 2d e4 0a fc 04
       2 16 7 6 -4 23 -9 0 38 -33 2 45 -28 10 -4 4
0000f0 00 ff d8 e3 f9 f6 dc 21 e2 f9 c6 09 fa 1b 18 ef
       0 -1 -40 -29 -7 -10 -36 33 -30 -7 -58 9 -6 27 24 -17

model/batch_normalization_40/FusedBatchNormV3;StatefulPartitionedCall/model/batch_normalization_40/FusedBatchNormV3;model/depthwise_conv2d_13/depthwise;StatefulPartitionedCall/model/depthwise_conv2d_13/depthwise;model/conv2d_28/Conv2D;StatefulPartitionedCall/model/conv2d_28/Conv2D i1 [1, 5, 5, 120]
000000 d4 15 f7 0f ce 09 04 05 1e 2c fb cc d5 1c f7 1d
       -44 21 -9 15 -50 9 4 5 30 44 -5 -52 -43 28 -9 29
000010 f7 fb f3 fc 05 03 f3 1c 0f 2b 60 6b 05 f7 81 f5
       -9 -5 -13 -4 5 3 -13 28 15 43 96 107 5 -9 -127 -11
000020 ea 50 e7 dc 02 26 d0 15 25 21 03 3b 0b f0 fd e7
       -22 80 -25 -36 2 38 -48 21 37 33 3 59 11 -16 -3 -25
000030 81 34 d0 e5 fe 18 06 dc d6 d6 f7 f9 0c ff 11 12
       -127 52 -48 -27 -2 24 6 -36 -42 -42 -9 -7 12 -1 17 18
000040 f7 44 03 f0 54 bc 07 19 da fe ea e7 05 fb d6 ec
       -9 68 3 -16 84 -68 7 25 -38 -2 -22 -25 5 -5 -42 -20
000050 05 09 2e f1 f6 f5 09 08 07 eb f7 03 06 61 f1 43
       5 9 46 -15 -10 -11 9 8 7 -21 -9 3 6 97 -15 67
000060 0a fc f9 00 01 fe 00 00 01 09 02 05 03 00 03 00
       10 -4 -7 0 1 -2 0 0 1 9 2 5 3 0 3 0
000070 0e 01 fc fc f7 0b 0c 01 f8 0b f6 bc 32 62 11 ff
       14 1 -4 -4 -9 11 12 1 -8 11 -10 -68 50 98 17 -1
000080 05 b1 f5 f1 02 15 18 e2 f0 21 08 01 eb 22 e3 1a
       5 -79 -11 -15 2 21 24 -30 -16 33 8 1 -21 34 -29 26
000090 fd d4 3a 22 dc 01 09 d9 fd 37 f3 c6 ed e5 b0 d8
       -3 -44 58 34 -36 1 9 -39 -3 55 -13 -58 -19 -27 -80 -40
0000a0 e9 10 f4 06 21 f5 fd f7 cf 47 d2 c2 fa d1 07 eb
       -23 16 -12 6 33 -11 -3 -9 -49 71 -46 -62 -6 -47 7 -21
0000b0 2a f9 dc 05 fd 35 18 2d 5b 29 ed eb 12 b6 0e 2e
       42 -7 -36 5 -3 53 24 45 91 41 -19 -21 18 -74 14 46
0000c0 f5 df 26 39 dd ea 05 c5 0e 08 1b fd 1d 0a 05 cc
       -11 -33 38 57 -35 -22 5 -59 14 8 27 -3 29 10 5 -52
0000d0 26 38 0f 6f fb 0a ff f1 f4 ee f0 02 00 03 ff 01
       38 56 15 111 -5 10 -1 -15 -12 -18 -16 2 0 3 -1 1
0000e0 ff 14 06 0d f9 00 07 04 0b ff 06 fe fc ee 01 01
       -1 20 6 13 -7 0 7 4 11 -1 6 -2 -4 -18 1 1
0000f0 19 0f dc b4 5f bb bb 15 13 e9 fe d1 12 75 fc fe
       25 15 -36 -76 95 -69 -69 21 19 -23 -2 -47 18 117 -4 -2

model/conv2d_27/Conv2D;StatefulPartitionedCall/model/conv2d_27/Conv2D i1 [18, 1, 1, 96]
000000 ee e1 be f7 09 09 00 f8 04 08 04 fe 03 2a fb 1c
       -18 -31 -66 -9 9 9 0 -8 4 8 4 -2 3 42 -5 28
000010 d7 0c 02 08 23 06 08 fd 07 ec 04 01 c5 2f f7 3d
       -41 12 2 8 35 6 8 -3 7 -20 4 1 -59 47 -9 61
000020 40 2b fe ef 95 e7 fd 01 0f 23 f6 d6 01 ff 3c f6
       64 43 -2 -17 -107 -25 -3 1 15 35 -10 -42 1 -1 60 -10
000030 fc fa 8f 55 02 ea 47 0b 9a 4b f9 7a 0d 14 24 08
       -4 -6 -113 85 2 -22 71 11 -102 75 -7 122 13 20 36 8
000040 52 bb fa 81 46 27 d5 a7 04 f6 00 d2 da 25 dc ee
       82 -69 -6 -127 70 39 -43 -89 4 -10 0 -46 -38 37 -36 -18
000050 a6 ef e3 22 fe f9 e5 41 ae dd fb 31 d6 26 dd 11
       -90 -17 -29 34 -2 -7 -27 65 -82 -35 -5 49 -42 38 -35 17
000060 d7 00 f3 f8 f9 c7 06 0a 03 e4 f3 fd f4 c3 1d db
       -41 0 -13 -8 -7 -57 6 10 3 -28 -13 -3 -12 -61 29 -37
000070 1f ef 05 fc c8 02 f0 f2 0d 04 c2 b4 d8 18 f5 35
       31 -17 5 -4 -56 2 -16 -14 13 4 -62 -76 -40 24 -11 53
000080 e5 09 c7 f4 d2 1d 7f 0f ea 17 bd a1 63 fb 0e 0f
       -27 9 -57 -12 -46 29 127 15 -22 23 -67 -95 99 -5 14 15
000090 2a da 3e 02 26 03 03 0f 3e 23 f8 ef 20 96 d2 f5
       42 -38 62 2 38 3 3 15 62 35 -8 -17 32 -106 -46 -11
0000a0 4b 1c 01 37 2c 4e ff fb 1e 03 c1 05 0c 26 20 36
       75 28 1 55 44 78 -1 -5 30 3 -63 5 12 38 32 54
0000b0 eb 07 10 f7 01 24 66 0e d9 f2 2f 21 b1 e2 f5 e3
       -21 7 16 -9 1 36 102 14 -39 -14 47 33 -79 -30 -11 -29
0000c0 20 f3 dd 0f e5 f9 20 ed fb 04 f5 16 0e ef fc 09
       32 -13 -35 15 -27 -7 32 -19 -5 4 -11 22 14 -17 -4 9
0000d0 de f6 f6 01 17 cd eb 12 f9 28 23 49 f1 21 14 e1
       -34 -10 -10 1 23 -51 -21 18 -7 40 35 73 -15 33 20 -31
0000e0 01 2a 07 12 f8 35 f4 06 fd d8 19 20 da ea c3 bf
       1 42 7 18 -8 53 -12 6 -3 -40 25 32 -38 -22 -61 -65
0000f0 7f e8 ef fa 05 15 0f 0c 00 e6 3b 04 d6 b0 1a 0d
       127 -24 -17 -6 5 21 15 12 0 -26 59 4 -42 -80 26 13

model/conv2d_26/Conv2D;StatefulPartitionedCall/model/conv2d_26/Conv2D i1 [96, 1, 1, 96]
000000 1a e3 23 11 00 ed ed f2 16 17 ef 0a fc 23 e6 e0
       26 -29 35 17 0 -19 -19 -14 22 23 -17 10 -4 35 -26 -32
000010 5e cf e2 01 f3 11 17 ef 0a 06 12 14 81 f6 02 21
       94 -49 -30 1 -13 17 23 -17 10 6 18 20 -127 -10 2 33
000020 fb 0d fe fc 02 ea f8 fe 1a f0 00 31 04 05 15 1c
       -5 13 -2 -4 2 -22 -8 -2 26 -16 0 49 4 5 21 28
000030 fe 09 11 2d 0b 3d e2 22 f9 fd 23 0f 1e 09 17 0e
       -2 9 17 45 11 61 -30 34 -7 -3 35 15 30 9 23 14
000040 23 11 0f 2e f3 1a e7 ec f3 26 0c fa 1f 02 23 02
       35 17 15 46 -13 26 -25 -20 -13 38 12 -6 31 2 35 2
000050 05 1b 22 0c f3 ff fe 06 de 39 01 f9 fd ee f6 0e
       5 27 34 12 -13 -1 -2 6 -34 57 1 -7 -3 -18 -10 14
000060 ed 1d 1a d9 01 f7 05 fa 2b df f2 05 e7 14 e6 f6
       -19 29 26 -39 1 -9 5 -6 43 -33 -14 5 -25 20 -26 -10
000070 da 81 f9 fe d3 d3 19 33 fa d9 fb 20 db f2 1e 00
       -38 -127 -7 -2 -45 -45 25 51 -6 -39 -5 32 -37 -14 30 0
000080 fb fa 21 fa 12 f7 e7 ec ff fd 06 f4 05 1a ea 2d
       -5 -6 33 -6 18 -9 -25 -20 -1 -3 6 -12 5 26 -22 45
000090 e9 f5 0c 09 ee fa db 15 4e 03 13 f7 04 70 e8 15
       -23 -11 12 9 -18 -6 -37 21 78 3 19 -9 4 112 -24 21
0000a0 14 04 03 f4 16 30 fd d2 06 8a 0b 15 01 09 02 fe
       20 4 3 -12 22 48 -3 -46 6 -118 11 21 1 9 2 -2
0000b0 f0 02 55 28 eb 19 4d ee 03 25 12 fe f5 ef fc 56
       -16 2 85 40 -21 25 77 -18 3 37 18 -2 -11 -17 -4 86
0000c0 d8 c9 0b 19 13 06 22 16 ea db 12 29 0d 1c 1b 28
       -40 -55 11 25 19 6 34 22 -22 -37 18 41 13 28 27 40
0000d0 20 d6 0e f9 0f f0 e3 27 07 f0 02 eb ee f9 01 0b
       32 -42 14 -7 15 -16 -29 39 7 -16 2 -21 -18 -7 1 11
0000e0 17 1e f4 0d 08 0a 05 2e 00 0b 02 d9 01 46 2e 08
       23 30 -12 13 8 10 5 46 0 11 2 -39 1 70 46 8
0000f0 11 fa 0d 3e 17 7f 26 05 17 00 2e c5 19 0c 2b 77
       17 -6 13 62 23 127 38 5 23 0 46 -59 25 12 43 119

model/batch_normalization_38/FusedBatchNormV3;StatefulPartitionedCall/model/batch_normalization_38/FusedBatchNormV3;model/depthwise_conv2d_12/depthwise;StatefulPartitionedCall/model/depthwise_conv2d_12/depthwise;model/conv2d_26/Conv2D;StatefulPartitionedCall/model/conv2d_26/Conv2D i1 [1, 5, 5, 96]
000000 00 fa 47 23 0a 2b 11 ff fe e4 db 06 fc 27 ee 0b
       0 -6 71 35 10 43 17 -1 -2 -28 -37 6 -4 39 -18 11
000010 05 fa 03 03 fd 26 07 04 0d 03 fa 38 d7 09 e6 ff
       5 -6 3 3 -3 38 7 4 13 3 -6 56 -41 9 -26 -1
000020 05 0f e6 f1 fc 0f f0 f5 00 06 0e 00 1a 12 11 0e
       5 15 -26 -15 -4 15 -16 -11 0 6 14 0 26 18 17 14
000030 f6 0e f6 1d 0d 05 e2 24 12 22 ef 05 35 f0 0b f1
       -10 14 -10 29 13 5 -30 36 18 34 -17 5 53 -16 11 -15
000040 09 08 00 7b f8 f8 f2 09 f2 fd 06 f5 00 fc f6 fb
       9 8 0 123 -8 -8 -14 9 -14 -3 6 -11 0 -4 -10 -5
000050 24 ee 19 07 19 06 f5 f6 00 2c 04 0b fd 04 06 ef
       36 -18 25 7 25 6 -11 -10 0 44 4 11 -3 4 6 -17
000060 1d f3 26 51 ff 18 ee ee e5 07 2f 30 fa 25 da fe
       29 -13 38 81 -1 24 -18 -18 -27 7 47 48 -6 37 -38 -2
000070 f6 05 fb f8 0c e1 03 ea ed 0b e5 48 8f ef 13 1c
       -10 5 -5 -8 12 -31 3 -22 -19 11 -27 72 -113 -17 19 28
000080 09 25 d9 0a 0f 00 e9 ea 05 18 10 03 03 ed 23 0d
       9 37 -39 10 15 0 -23 -22 5 24 16 3 3 -19 35 13
000090 f9 d8 f5 25 fa f8 ef 0f 02 67 e9 01 5e 37 0f 0c
       -7 -40 -11 37 -6 -8 -17 15 2 103 -23 1 94 55 15 12
0000a0 f7 e9 ff 48 06 f9 f0 11 10 16 ee 26 fd 3c 00 13
       -9 -23 -1 72 6 -7 -16 17 16 22 -18 38 -3 60 0 19
0000b0 eb d6 17 11 11 10 da e1 eb f7 05 11 fa 19 04 04
       -21 -42 23 17 17 16 -38 -31 -21 -9 5 17 -6 25 4 4
0000c0 03 f2 68 6b fb 66 fe 0c f7 ed 7f 20 0b 4e f4 fd
       3 -14 104 107 -5 102 -2 12 -9 -19 127 32 11 78 -12 -3
0000d0 f5 05 08 01 01 ea e3 ea 20 0d d7 16 a2 e9 08 f8
       -11 5 8 1 1 -22 -29 -22 32 13 -41 22 -94 -23 8 -8
0000e0 0c 17 e6 03 25 02 08 ed de 10 f9 00 2e e9 2e f5
       12 23 -26 3 37 2 8 -19 -34 16 -7 0 46 -23 46 -11
0000f0 09 ec ea 45 ed 05 cc 22 08 26 fb 1a 7f 1b 06 e2
       9 -20 -22 69 -19 5 -52 34 8 38 -5 26 127 27 6 -30

model/conv2d_25/Conv2D;StatefulPartitionedCall/model/conv2d_25/Conv2D i1 [96, 1, 1, 192]
000000 fd ef 05 0d 09 f9 10 ec ef ec 0d d8 f8 d4 ea ea
       -3 -17 5 13 9 -7 16 -20 -17 -20 13 -40 -8 -44 -22 -22
000010 e2 14 06 e0 f4 c8 24 f4 fa 09 00 e3 e5 f8 2b 1b
       -30 20 6 -32 -12 -56 36 -12 -6 9 0 -29 -27 -8 43 27
000020 14 ed e9 e8 fb 01 eb 18 08 3c e6 d7 26 ec f2 00
       20 -19 -23 -24 -5 1 -21 24 8 60 -26 -41 38 -20 -14 0
000030 fd ef 07 0c 09 f9 11 ee f1 eb 0d da f8 d4 eb ea
       -3 -17 7 12 9 -7 17 -18 -15 -21 13 -38 -8 -44 -21 -22
000040 e2 13 06 e2 f4 c8 24 f6 fa 08 00 e3 e4 fa 2b 1a
       -30 19 6 -30 -12 -56 36 -10 -6 8 0 -29 -28 -6 43 26
000050 13 ec e9 e9 fa ff eb 17 08 3a e5 d6 26 eb f1 00
       19 -20 -23 -23 -6 -1 -21 23 8 58 -27 -42 38 -21 -15 0
000060 f9 03 28 50 fe 0d f9 1d f8 d3 2c de 03 00 dc ea
       -7 3 40 80 -2 13 -7 29 -8 -45 44 -34 3 0 -36 -22
000070 1b fe de f8 18 e3 24 fa 1d 22 11 f7 19 18 0e 69
       27 -2 -34 -8 24 -29 36 -6 29 34 17 -9 25 24 14 105
000080 00 da ee 06 46 f1 02 30 fb 13 0b eb d2 48 18 06
       0 -38 -18 6 70 -15 2 48 -5 19 11 -21 -46 72 24 6
000090 db 4f ce 07 f1 d4 05 36 de 06 5b 0c da 20 5a 7b
       -37 79 -50 7 -15 -44 5 54 -34 6 91 12 -38 32 90 123
0000a0 fc 3a 9e 3a 00 a9 63 1d 7f 2d dc 43 a6 47 8b 07
       -4 58 -98 58 0 -87 99 29 127 45 -36 67 -90 71 -117 7
0000b0 ee 10 e9 fd e9 1e 22 03 3d ea c1 37 d4 4a 28 92
       -18 16 -23 -3 -23 30 34 3 61 -22 -63 55 -44 74 40 -110
0000c0 07 fe f6 11 28 e1 12 e5 24 d1 f2 f3 fd d5 ec e6
       7 -2 -10 17 40 -31 18 -27 36 -47 -14 -13 -3 -43 -20 -26
0000d0 fa 21 03 b3 08 d4 1e f8 e9 fa e9 e2 ed 25 2e df
       -6 33 3 -77 8 -44 30 -8 -23 -6 -23 -30 -19 37 46 -33
0000e0 0b ee 21 02 e2 fe f1 00 01 49 0b ea 1c e7 ea 03
       11 -18 33 2 -30 -2 -15 0 1 73 11 -22 28 -25 -22 3
0000f0 08 fe f7 11 2a e2 13 e6 25 d1 f2 f4 ff d3 ed e8
       8 -2 -9 17 42 -30 19 -26 37 -47 -14 -12 -1 -45 -19 -24

model/conv2d_24/Conv2D;StatefulPartitionedCall/model/conv2d_24/Conv2D i1 [48, 1, 1, 224]
000000 2b ed e1 5f d4 dc 58 fe fa 25 f2 f8 e7 e0 a9 47
       43 -19 -31 95 -44 -36 88 -2 -6 37 -14 -8 -25 -32 -87 71
000010 ce 7f 40 e2 0a 06 ca 2d 09 b5 ce d1 ed 14 3f ee
       -50 127 64 -30 10 6 -54 45 9 -75 -50 -47 -19 20 63 -18
000020 f2 da 03 f1 fb 19 db d4 d9 08 e2 d9 0d 11 01 f8
       -14 -38 3 -15 -5 25 -37 -44 -39 8 -30 -39 13 17 1 -8
000030 0c d6 2a 21 1f 15 20 e0 0c e3 fb dd 8f 3f e2 fa
       12 -42 42 33 31 21 32 -32 12 -29 -5 -35 -113 63 -30 -6
000040 30 1c ba f7 e7 00 16 51 1e cf c5 f3 1a f6 2d c9
       48 28 -70 -9 -25 0 22 81 30 -49 -59 -13 26 -10 45 -55
000050 24 2d e4 19 bc 27 ee ea 10 d6 ef 00 0d d4 f8 c6
       36 45 -28 25 -68 39 -18 -22 16 -42 -17 0 13 -44 -8 -58
000060 cf d8 fc c7 df 3d 30 15 0f fa 26 24 d4 a5 0d 3c
       -49 -40 -4 -57 -33 61 48 21 15 -6 38 36 -44 -91 13 60
000070 fe 05 02 1b c0 d9 dd fa f6 15 28 ab 24 53 2f 3e
       -2 5 2 27 -64 -39 -35 -6 -10 21 40 -85 36 83 47 62
000080 ed 10 ff 17 0d db d9 f7 f9 d6 02 15 b7 1e 27 cf
       -19 16 -1 23 13 -37 -39 -9 -7 -42 2 21 -73 30 39 -49
000090 1c ff ce 29 1c d6 1b 3d 19 14 3c d0 fb b4 29 e1
       28 -1 -50 41 28 -42 27 61 25 20 60 -48 -5 -76 41 -31
0000a0 ba 4f f3 ee 53 14 1e 09 fa 0b c3 b3 e3 3b 2c a6
       -70 79 -13 -18 83 20 30 9 -6 11 -61 -77 -29 59 44 -90
0000b0 e3 d0 23 df d2 d3 09 f5 d2 f7 0b 2b 31 e1 d8 fc
       -29 -48 35 -33 -46 -45 9 -11 -46 -9 11 43 49 -31 -40 -4
0000c0 fe ef dc dd ca 0b ab 01 b5 e2 e4 62 f4 01 d3 05
       -2 -17 -36 -35 -54 11 -85 1 -75 -30 -28 98 -12 1 -45 5
0000d0 5e b5 56 cc dd 51 b9 fb 19 e2 20 fc e6 de eb 1f
       94 -75 86 -52 -35 81 -71 -5 25 -30 32 -4 -26 -34 -21 31
0000e0 e4 ea 0b ff 1e 25 2b ec 04 f1 ac e7 13 16 01 e5
       -28 -22 11 -1 30 37 43 -20 4 -15 -84 -25 19 22 1 -27
0000f0 36 14 0e 04 2a d3 27 d0 dc f2 59 10 09 ff da c7
       54 20 14 4 42 -45 39 -48 -36 -14 89 16 9 -1 -38 -57

model/batch_normalization_35/FusedBatchNormV3;StatefulPartitionedCall/model/batch_normalization_35/FusedBatchNormV3;model/depthwise_conv2d_11/depthwise;StatefulPartitionedCall/model/depthwise_conv2d_11/depthwise i1 [1, 3, 3, 224]
000000 86 45 10 7f 15 e5 b9 16 cc 42 72 a2 25 b8 a3 02
       -122 69 16 127 21 -27 -71 22 -52 66 114 -94 37 -72 -93 2
000010 11 c8 3d 5c 06 ed 9e 3d 2a d5 c4 e5 23 a1 fe de
       17 -56 61 92 6 -19 -98 61 42 -43 -60 -27 35 -95 -2 -34
000020 d4 3b 14 25 bd 2e e3 e2 b2 98 34 3e f2 3c f2 11
       -44 59 20 37 -67 46 -29 -30 -78 -104 52 62 -14 60 -14 17
000030 ef fe a6 dc f3 20 c3 6e 21 81 fd cb ca e1 f4 f0
       -17 -2 -90 -36 -13 32 -61 110 33 -127 -3 -53 -54 -31 -12 -16
000040 aa b0 ec 7d 3a 01 18 f8 b5 1a b1 19 b8 b4 ae f8
       -86 -80 -20 125 58 1 24 -8 -75 26 -79 25 -72 -76 -82 -8
000050 e0 16 02 f7 da e3 48 03 28 f3 cf cd a6 4b ea 7f
       -32 22 2 -9 -38 -29 72 3 40 -13 -49 -51 -90 75 -22 127
000060 ea ee a7 2a 53 a4 f3 f9 9e 09 9c da 1f fa 75 08
       -22 -18 -89 42 83 -92 -13 -7 -98 9 -100 -38 31 -6 117 8
000070 b6 45 f8 36 fb 60 e5 39 1d 8a 81 ce 3d 0f 7f dc
       -74 69 -8 54 -5 96 -27 57 29 -118 -127 -50 61 15 127 -36
000080 d7 0f af 0b f3 7f a7 3b d9 36 15 cb 11 e2 18 4e
       -41 15 -81 11 -13 127 -89 59 -39 54 21 -53 17 -30 24 78
000090 61 40 13 1f 1f 1d cf 2c 6a 41 66 43 52 32 d9 cd
       97 64 19 31 31 29 -49 44 106 65 102 67 82 50 -39 -51
0000a0 c7 b1 c5 1e 13 d6 c3 c3 41 05 f3 d9 3b ad 54 6c
       -57 -79 -59 30 19 -42 -61 -61 65 5 -13 -39 59 -83 84 108
0000b0 2a c4 db b2 19 fd d2 81 25 2c 2d e8 f4 01 07 35
       42 -60 -37 -78 25 -3 -46 -127 37 44 45 -24 -12 1 7 53
0000c0 51 33 ad 12 6e cb d1 71 6a 3d 16 e4 97 55 bb b8
       81 51 -83 18 110 -53 -47 113 106 61 22 -28 -105 85 -69 -72
0000d0 38 04 1c f7 06 c0 f3 e7 dd b6 dc b0 5a a4 12 5d
       56 4 28 -9 6 -64 -13 -25 -35 -74 -36 -80 90 -92 18 93
0000e0 0a 7f 5d ec 81 f5 bf ee b9 72 6c 9d 32 f7 53 0a
       10 127 93 -20 -127 -11 -65 -18 -71 114 108 -99 50 -9 83 10
0000f0 a6 81 7c 55 4a 24 81 76 a1 e9 e4 09 e4 05 04 0a
       -90 -127 124 85 74 36 -127 118 -95 -23 -28 9 -28 5 4 10

model/conv2d_23/Conv2D;StatefulPartitionedCall/model/conv2d_23/Conv2D i1 [224, 1, 1, 48]
000000 0e e8 8f ed 33 fa e8 ca c1 26 e5 e8 ca 32 e0 07
       14 -24 -113 -19 51 -6 -24 -54 -63 38 -27 -24 -54 50 -32 7
000010 0c af f1 1a d1 1d c4 7f 0e ec 09 fe ed 49 f0 01
       12 -81 -15 26 -47 29 -60 127 14 -20 9 -2 -19 73 -16 1
000020 22 11 2a ec 19 51 fa 57 b9 dd fe 36 9c 01 e0 e3
       34 17 42 -20 25 81 -6 87 -71 -35 -2 54 -100 1 -32 -29
000030 b3 26 14 fa ae e2 1c c1 d5 c3 d4 e9 f2 f4 d8 cf
       -77 38 20 -6 -82 -30 28 -63 -43 -61 -44 -23 -14 -12 -40 -49
000040 e0 f4 f8 16 31 bb c4 e9 09 f6 ca f7 d1 29 65 26
       -32 -12 -8 22 49 -69 -60 -23 9 -10 -54 -9 -47 41 101 38
000050 49 3f cb 15 14 f5 cd 81 1d e6 fb e5 06 0b ec 1a
       73 63 -53 21 20 -11 -51 -127 29 -26 -5 -27 6 11 -20 26
000060 3b 13 08 ee e5 35 d5 59 4e f5 5a cb 04 d2 e5 41
       59 19 8 -18 -27 53 -43 89 78 -11 90 -53 4 -46 -27 65
000070 1b e0 40 dd ec ce e6 37 09 fd 16 81 2a 32 da f0
       27 -32 64 -35 -20 -50 -26 55 9 -3 22 -127 42 50 -38 -16
000080 d0 a3 d2 13 41 09 21 05 e2 34 1c 6f d1 d2 e8 d2
       -48 -93 -46 19 65 9 33 5 -30 52 28 111 -47 -46 -24 -46
000090 06 bc ef de cb 02 14 8f ef d0 e1 05 2b 65 20 12
       6 -68 -17 -34 -53 2 20 -113 -17 -48 -31 5 43 101 32 18
0000a0 b9 10 71 0d 28 df 00 df f5 f9 23 7f 0a ff e1 c4
       -71 16 113 13 40 -33 0 -33 -11 -7 35 127 10 -1 -31 -60
0000b0 b7 12 c6 0a eb 3a d6 02 b8 29 d1 66 b8 b2 08 4f
       -73 18 -58 10 -21 58 -42 2 -72 41 -47 102 -72 -78 8 79
0000c0 0f 12 2e 04 24 f9 cf 09 de f7 d6 ed 1d da 7f e2
       15 18 46 4 36 -7 -49 9 -34 -9 -42 -19 29 -38 127 -30
0000d0 27 00 d4 15 f1 2c 0b c3 e1 11 1d eb 2d c1 fc 2f
       39 0 -44 21 -15 44 11 -61 -31 17 29 -21 45 -63 -4 47
0000e0 09 14 39 1d f7 ef 4e 09 24 22 19 f6 e4 1f d0 c1
       9 20 57 29 -9 -17 78 9 36 34 25 -10 -28 31 -48 -63
0000f0 e2 33 09 7f 5b c9 6a d6 1d 30 b2 13 93 bc 0e e0
       -30 51 9 127 91 -55 106 -42 29 48 -78 19 -109 -68 14 -32

model/conv2d_22/Conv2D;StatefulPartitionedCall/model/conv2d_22/Conv2D i1 [48, 1, 1, 136]
000000 27 05 d2 e3 fb 01 45 16 e3 31 f5 10 e2 11 1a 02
       39 5 -46 -29 -5 1 69 22 -29 49 -11 16 -30 17 26 2
000010 0c 12 10 1d 2c 16 da f1 2f 0b d1 cd d0 f5 f7 16
       12 18 16 29 44 22 -38 -15 47 11 -47 -51 -48 -11 -9 22
000020 05 21 d8 e5 0b 1e f7 09 cb e1 1b ba e2 0e c8 3b
       5 33 -40 -27 11 30 -9 9 -53 -31 27 -70 -30 14 -56 59
000030 e3 14 9e 30 0c e6 e9 15 05 06 e6 0d e7 12 ee ee
       -29 20 -98 48 12 -26 -23 21 5 6 -26 13 -25 18 -18 -18
000040 da e2 e6 c7 16 fa f4 30 0d 33 14 12 f7 d8 d7 04
       -38 -30 -26 -57 22 -6 -12 48 13 51 20 18 -9 -40 -41 4
000050 f1 f5 17 3a 08 ea fd 28 f3 49 d0 54 02 11 20 fa
       -15 -11 23 58 8 -22 -3 40 -13 73 -48 84 2 17 32 -6
000060 06 9c 0e ea 1a d9 e2 2f f7 d7 ee 12 e0 03 f9 51
       6 -100 14 -22 26 -39 -30 47 -9 -41 -18 18 -32 3 -7 81
000070 01 fa c0 09 ee 2e 09 02 0f 2a 05 25 0e 07 02 0e
       1 -6 -64 9 -18 46 9 2 15 42 5 37 14 7 2 14
000080 81 dc 48 fa f9 14 f7 f7 0c fd a7 10 15 f1 2b 16
       -127 -36 72 -6 -7 20 -9 -9 12 -3 -89 16 21 -15 43 22
000090 ed 17 07 ef 7c ba 0a f4 db 03 b2 12 26 03 07 cc
       -19 23 7 -17 124 -70 10 -12 -37 3 -78 18 38 3 7 -52
0000a0 de 03 f1 f5 dd c6 f7 ef f3 0b e5 a6 27 ef 1f fd
       -34 3 -15 -11 -35 -58 -9 -17 -13 11 -27 -90 39 -17 31 -3
0000b0 fa d6 01 f8 20 06 41 aa ed f3 f5 c3 f9 0c f7 13
       -6 -42 1 -8 32 6 65 -86 -19 -13 -11 -61 -7 12 -9 19
0000c0 da e7 da 0e 0b a6 22 1f e4 cb dd d1 18 eb 0b 2e
       -38 -25 -38 14 11 -90 34 31 -28 -53 -35 -47 24 -21 11 46
0000d0 c2 10 06 96 c1 7f ee bb d9 f5 18 8f eb 24 06 ef
       -62 16 6 -106 -63 127 -18 -69 -39 -11 24 -113 -21 36 6 -17
0000e0 f9 09 ff 12 3b f8 05 b0 32 36 09 ec 4c 10 22 cf
       -7 9 -1 18 59 -8 5 -80 50 54 9 -20 76 16 34 -49
0000f0 fe ff b9 2a 1d b0 c7 0d c3 bf 02 f0 f5 e5 b7 f0
       -2 -1 -71 42 29 -80 -57 13 -61 -65 2 -16 -11 -27 -73 -16

model/batch_normalization_32/FusedBatchNormV3;StatefulPartitionedCall/model/batch_normalization_32/FusedBatchNormV3;model/depthwise_conv2d_10/depthwise;StatefulPartitionedCall/model/depthwise_conv2d_10/depthwise i1 [1, 3, 3, 136]
000000 e3 d9 fa f5 f8 65 1a 07 c9 9f 1a c1 0c 07 fa ad
       -29 -39 -6 -11 -8 101 26 7 -55 -97 26 -63 12 7 -6 -83
000010 21 e7 ff 21 11 fc 20 41 db 44 dc ca 77 ea c9 f0
       33 -25 -1 33 17 -4 32 65 -37 68 -36 -54 119 -22 -55 -16
000020 90 fc 32 c5 ba f1 95 ec c4 3b 0a cf 35 0f 32 fb
       -112 -4 50 -59 -70 -15 -107 -20 -60 59 10 -49 53 15 50 -5
000030 6f ef 0a b9 90 e6 0f 47 df d7 f7 35 43 17 43 1a
       111 -17 10 -71 -112 -26 15 71 -33 -41 -9 53 67 23 67 26
000040 e6 13 07 dc ae df 2e 31 e7 3f 00 0d d9 14 94 f3
       -26 19 7 -36 -82 -33 46 49 -25 63 0 13 -39 20 -108 -13
000050 01 fa d1 e8 91 fe 59 ec df 91 5e df 1c fa 0c 30
       1 -6 -47 -24 -111 -2 89 -20 -33 -111 94 -33 28 -6 12 48
000060 a3 ea b6 f1 ec 1e f5 13 5d d4 dd b9 bd 31 f2 eb
       -93 -22 -74 -15 -20 30 -11 19 93 -44 -35 -71 -67 49 -14 -21
000070 16 1e 10 4b 42 eb d2 1e f8 0e f9 8a 01 dc e7 d3
       22 30 16 75 66 -21 -46 30 -8 14 -7 -118 1 -36 -25 -45
000080 b6 43 24 e2 2e 0b fc 2b ac d1 03 1b 9f 16 31 ce
       -74 67 36 -30 46 11 -4 43 -84 -47 3 27 -97 22 49 -50
000090 33 df 4e 95 2e 24 0d a0 6e 88 18 5f 29 eb 9a 61
       51 -33 78 -107 46 36 13 -96 110 -120 24 95 41 -21 -102 97
0000a0 9f 7d fe be 9a 34 22 07 9a f8 3b 34 a7 91 d2 81
       -97 125 -2 -66 -102 52 34 7 -102 -8 59 52 -89 -111 -46 -127
0000b0 b3 7f 04 b7 5b eb 8a 20 49 83 08 3e 81 7f 7f 7f
       -77 127 4 -73 91 -21 -118 32 73 -125 8 62 -127 127 127 127
0000c0 40 a9 09 7f 5c fe 19 02 1f 69 29 cd a6 ca 4c 35
       64 -87 9 127 92 -2 25 2 31 105 41 -51 -90 -54 76 53
0000d0 81 4d 6d 53 b9 5f ad 9b 2e ea 81 d6 d7 f1 1e 8a
       -127 77 109 83 -71 95 -83 -101 46 -22 -127 -42 -41 -15 30 -118
0000e0 65 cb 59 be 7f 1a 16 35 99 c3 81 cf 51 3b 4d c4
       101 -53 89 -66 127 26 22 53 -103 -61 -127 -49 81 59 77 -60
0000f0 59 f5 ab a0 81 7f 21 0a 04 64 7b 81 7f bf 0f 3d
       89 -11 -85 -96 -127 127 33 10 4 100 123 -127 127 -65 15 61

model/conv2d_21/Conv2D;StatefulPartitionedCall/model/conv2d_21/Conv2D i1 [136, 1, 1, 24]
000000 81 08 9f f0 2e ff ff e9 5e 26 03 34 d0 f0 52 1a
       -127 8 -97 -16 46 -1 -1 -23 94 38 3 52 -48 -16 82 26
000010 f5 41 d1 14 1e 5f 1f 01 81 f0 c7 36 fe 9a 07 24
       -11 65 -47 20 30 95 31 1 -127 -16 -57 54 -2 -102 7 36
000020 30 e6 25 72 eb 0a 27 ec bc ec d3 c3 ba f9 5d 44
       48 -26 37 114 -21 10 39 -20 -68 -20 -45 -61 -70 -7 93 68
000030 35 ac f8 e5 28 ba d8 05 d4 20 af 7f b2 c0 a6 3d
       53 -84 -8 -27 40 -70 -40 5 -44 32 -81 127 -78 -64 -90 61
000040 e7 26 35 fb 9f f4 3e 0f e5 df 7f 34 ff 32 08 17
       -25 38 53 -5 -97 -12 62 15 -27 -33 127 52 -1 50 8 23
000050 1e e8 3d fe f9 13 52 02 12 03 c9 06 4e d5 13 20
       30 -24 61 -2 -7 19 82 2 18 3 -55 6 78 -43 19 32
000060 5f e0 c6 bd fe d2 13 26 b8 07 81 f8 45 22 ad b6
       95 -32 -58 -67 -2 -46 19 38 -72 7 -127 -8 69 34 -83 -74
000070 ae 09 e8 01 65 39 bf ef 4f f7 29 dd 32 0d da f8
       -82 9 -24 1 101 57 -65 -17 79 -9 41 -35 50 13 -38 -8
000080 d2 fd ad db e4 cd 1b d1 10 7f f0 c8 11 e2 17 dd
       -46 -3 -83 -37 -28 -51 27 -47 16 127 -16 -56 17 -30 23 -35
000090 ce 42 c5 07 2b 06 e2 d3 cd e4 81 fe 28 fb fd af
       -50 66 -59 7 43 6 -30 -45 -51 -28 -127 -2 40 -5 -3 -81
0000a0 f8 09 0c ee c8 0c fd f3 81 69 ba 1d 0c ae 2f 14
       -8 9 12 -18 -56 12 -3 -13 -127 105 -70 29 12 -82 47 20
0000b0 47 48 00 9f d9 35 44 e6 60 d2 67 16 dd f2 d8 06
       71 72 0 -97 -39 53 68 -26 96 -46 103 22 -35 -14 -40 6
0000c0 7f f4 07 34 1d f9 ec f5 da 51 19 09 41 fe e2 00
       127 -12 7 52 29 -7 -20 -11 -38 81 25 9 65 -2 -30 0
0000d0 d7 35 a9 ef 58 17 d6 2c 81 12 a9 43 3d d8 ae ed
       -41 53 -87 -17 88 23 -42 44 -127 18 -87 67 61 -40 -82 -19
0000e0 3d 35 42 1b 07 17 4a 37 11 13 b7 ec f0 c4 0a 3f
       61 53 66 27 7 23 74 55 17 19 -73 -20 -16 -60 10 63
0000f0 1e 6f b4 59 23 aa 38 65 cf ec d0 4e 81 38 12 ce
       30 111 -76 89 35 -86 56 101 -49 -20 -48 78 -127 56 18 -50

model/conv2d_20/Conv2D;StatefulPartitionedCall/model/conv2d_20/Conv2D i1 [24, 1, 1, 136]
000000 b8 9c 06 1a 0d ee e7 f7 f3 d7 fe 1e e1 ef 28 df
       -72 -100 6 26 13 -18 -25 -9 -13 -41 -2 30 -31 -17 40 -33
000010 1e e2 f5 15 24 22 11 16 f9 da 1d fc 11 ea fb dd
       30 -30 -11 21 36 34 17 22 -7 -38 29 -4 17 -22 -5 -35
000020 3c d7 16 0a 0c 0a d9 dd d8 e6 e8 ea 46 3e d8 0d
       60 -41 22 10 12 10 -39 -35 -40 -26 -24 -22 70 62 -40 13
000030 e6 12 10 3c df 1a f8 cc f1 11 f9 31 d5 f5 3b da
       -26 18 16 60 -33 26 -8 -52 -15 17 -7 49 -43 -11 59 -38
000040 dd c7 ac 3d 16 00 d3 f2 e6 e3 bc 35 3f 0c 0a 24
       -35 -57 -84 61 22 0 -45 -14 -26 -29 -68 53 63 12 10 36
000050 08 26 f3 e3 f6 03 28 c0 1d 0a 10 e3 e8 c5 ee da
       8 38 -13 -29 -10 3 40 -64 29 10 16 -29 -24 -59 -18 -38
000060 ed 0c 34 81 37 e7 e7 bb 66 08 f1 e3 10 ef 37 01
       -19 12 52 -127 55 -25 -25 -69 102 8 -15 -29 16 -17 55 1
000070 d9 fe c8 03 07 20 c9 da cb fc 24 f0 e6 13 fd af
       -39 -2 -56 3 7 32 -55 -38 -53 -4 36 -16 -26 19 -3 -81
000080 e0 0b 00 f6 28 10 be e2 0d 14 38 cd 02 e1 57 ef
       -32 11 0 -10 40 16 -66 -30 13 20 56 -51 2 -31 87 -17
000090 37 10 e5 08 18 d1 10 ec 01 87 d0 ee b3 28 10 e4
       55 16 -27 8 24 -47 16 -20 1 -121 -48 -18 -77 40 16 -28
0000a0 10 b5 f9 1e 34 ed 01 e3 09 e4 f5 ef 36 3b dc bf
       16 -75 -7 30 52 -19 1 -29 9 -28 -11 -17 54 59 -36 -65
0000b0 e4 0c 1c eb be 0a e0 f1 06 c1 f2 58 05 ef f4 be
       -28 12 28 -21 -66 10 -32 -15 6 -63 -14 88 5 -17 -12 -66
0000c0 db 38 e7 ea 04 d2 16 1a 3a 3c 2c e9 5f d1 a5 10
       -37 56 -25 -22 4 -46 22 26 58 60 44 -23 95 -47 -91 16
0000d0 31 19 16 f6 30 2e 42 21 b1 e2 9f f9 d0 39 34 0b
       49 25 22 -10 48 46 66 33 -79 -30 -97 -7 -48 57 52 11
0000e0 19 19 16 03 40 e9 02 f0 dd 25 42 fb f0 17 f2 53
       25 25 22 3 64 -23 2 -16 -35 37 66 -5 -16 23 -14 83
0000f0 a5 ca 3b ff 44 68 22 3e 0e 7f f5 fa 67 f2 fa d5
       -91 -54 59 -1 68 104 34 62 14 127 -11 -6 103 -14 -6 -43

model/batch_normalization_29/FusedBatchNormV3;StatefulPartitionedCall/model/batch_normalization_29/FusedBatchNormV3;model/depthwise_conv2d_9/depthwise;StatefulPartitionedCall/model/depthwise_conv2d_9/depthwise;model/depthwise_conv2d_10/depthwise;StatefulPartitionedCall/model/depthwise_conv2d_10/depthwise i1 [1, 3, 3, 136]
000000 24 ab 3d c7 ce 0a e7 df 3a 05 df 0c 26 ee fc 22
       36 -85 61 -57 -50 10 -25 -33 58 5 -33 12 38 -18 -4 34
000010 fd 40 06 0e d5 e8 0f e2 f6 c7 db 0a 05 09 fb f8
       -3 64 6 14 -43 -24 15 -30 -10 -57 -37 10 5 9 -5 -8
000020 41 03 32 d7 48 47 2f dd 5f 17 63 ee f6 ae 00 ed
       65 3 50 -41 72 71 47 -35 95 23 99 -18 -10 -82 0 -19
000030 a6 02 79 0c d0 19 fd 03 ba c4 3e 2a b0 da ce 09
       -90 2 121 12 -48 25 -3 3 -70 -60 62 42 -80 -38 -50 9
000040 f9 dd 13 d2 f8 fc 73 02 08 2f f4 12 3b 09 e6 14
       -7 -35 19 -46 -8 -4 115 2 8 47 -12 18 59 9 -26 20
000050 fc fd 10 c7 9c 2c d7 21 ec 6e 0d 15 db 0c fc eb
       -4 -3 16 -57 -100 44 -41 33 -20 110 13 21 -37 12 -4 -21
000060 07 78 15 08 f7 0b 47 1b 10 13 00 08 9b 1a 2b eb
       7 120 21 8 -9 11 71 27 16 19 0 8 -101 26 43 -21
000070 0d d3 1c f2 28 0b 08 46 d6 06 d5 46 02 14 df ea
       13 -45 28 -14 40 11 8 70 -42 6 -43 70 2 20 -33 -22
000080 04 04 02 09 06 ff e2 ee 37 97 51 39 1b b7 81 28
       4 4 2 9 6 -1 -30 -18 55 -105 81 57 27 -73 -127 40
000090 18 93 25 34 81 ab 72 4a 72 81 2f 4f 7f ec 69 bb
       24 -109 37 52 -127 -85 114 74 114 -127 47 79 127 -20 105 -69
0000a0 1e ee b1 d4 4c 09 3b 7f 00 29 4e d4 66 6b e4 de
       30 -18 -79 -44 76 9 59 127 0 41 78 -44 102 107 -28 -34
0000b0 82 39 81 f3 e2 cd 7f 35 7f c9 ed 7f 7f d6 bf fd
       -126 57 -127 -13 -30 -51 127 53 127 -55 -19 127 127 -42 -65 -3
0000c0 be 7f 68 42 98 11 0d 04 81 c0 46 a0 81 1b 35 4c
       -66 127 104 66 -104 17 13 4 -127 -64 70 -96 -127 27 53 76
0000d0 fc 7f 47 7f 0d 7f ae 51 1b 81 e7 2f f4 37 d9 ff
       -4 127 71 127 13 127 -82 81 27 -127 -25 47 -12 55 -39 -1
0000e0 24 7f 83 4d 05 7f b1 a5 7f 81 7f 7f cd 6a fe 7f
       36 127 -125 77 5 127 -79 -91 127 -127 127 127 -51 106 -2 127
0000f0 6b 7f 47 b3 81 54 77 a4 7f 81 c6 32 7f 23 67 7f
       107 127 71 -77 -127 84 119 -92 127 -127 -58 50 127 35 103 127

model/conv2d_19/Conv2D;StatefulPartitionedCall/model/conv2d_19/Conv2D i1 [136, 1, 1, 24]
000000 3a 49 53 cf 23 81 48 f2 cd 1b 38 eb d8 0c b6 e2
       58 73 83 -49 35 -127 72 -14 -51 27 56 -21 -40 12 -74 -30
000010 97 ee d5 a4 18 3e 15 ef 5f e7 2e fa 3e b2 f5 1f
       -105 -18 -43 -92 24 62 21 -17 95 -25 46 -6 62 -78 -11 31
000020 c3 c1 e1 81 90 1f 26 06 fa d5 de d7 fa ec 0f 0b
       -61 -63 -31 -127 -112 31 38 6 -6 -43 -34 -41 -6 -20 15 11
000030 2a 2b 0f 68 ef cc 06 f2 ff 12 f7 a9 26 df c5 00
       42 43 15 104 -17 -52 6 -14 -1 18 -9 -87 38 -33 -59 0
000040 ca ed cc c7 7f 13 f3 ea f7 1b 7f 64 f5 b3 07 48
       -54 -19 -52 -57 127 19 -13 -22 -9 27 127 100 -11 -77 7 72
000050 2f 03 24 fc a5 f2 cb 99 fb 01 d2 c5 18 04 11 d7
       47 3 36 -4 -91 -14 -53 -103 -5 1 -46 -59 24 4 17 -41
000060 25 f6 5f c1 4c 16 e5 81 b8 23 b9 63 6e dc ac 5c
       37 -10 95 -63 76 22 -27 -127 -72 35 -71 99 110 -36 -84 92
000070 bd b4 f4 f9 bf e0 fa 08 f5 ef ec 2d 2c 7f d3 b8
       -67 -76 -12 -7 -65 -32 -6 8 -11 -17 -20 45 44 127 -45 -72
000080 96 d2 35 29 17 03 27 34 b0 f3 e8 48 d9 f7 0b f7
       -106 -46 53 41 23 3 39 52 -80 -13 -24 72 -39 -9 11 -9
000090 d5 df 23 d0 88 79 81 2c 18 bc d5 f5 64 c8 e6 d9
       -43 -33 35 -48 -120 121 -127 44 24 -68 -43 -11 100 -56 -26 -39
0000a0 c8 05 c1 13 47 d9 96 d6 11 c0 65 b4 ff cc 1d 25
       -56 5 -63 19 71 -39 -106 -42 17 -64 101 -76 -1 -52 29 37
0000b0 d5 81 b5 43 32 ea 2d 3c fc ee a9 21 07 c2 da fa
       -43 -127 -75 67 50 -22 45 60 -4 -18 -87 33 7 -62 -38 -6
0000c0 47 f5 f1 81 c5 0b 15 e4 22 03 b0 07 e8 b6 c9 2f
       71 -11 -15 -127 -59 11 21 -28 34 3 -80 7 -24 -74 -55 47
0000d0 bf 60 01 44 c7 35 4b 11 df 12 d2 0a 4b 4f 26 57
       -65 96 1 68 -57 53 75 17 -33 18 -46 10 75 79 38 87
0000e0 b8 cc 04 cf 54 15 05 36 0a 81 2d c2 47 3a a6 fb
       -72 -52 4 -49 84 21 5 54 10 -127 45 -62 71 58 -90 -5
0000f0 0c d7 25 a7 ae f8 f1 6a fb 29 07 da d9 81 2f 06
       12 -41 37 -89 -82 -8 -15 106 -5 41 7 -38 -39 -127 47 6

model/conv2d_18/Conv2D;StatefulPartitionedCall/model/conv2d_18/Conv2D i1 [24, 1, 1, 96]
000000 0a ea 2c f4 15 2b b4 f3 55 fe e8 37 fb ea f0 03
       10 -22 44 -12 21 43 -76 -13 85 -2 -24 55 -5 -22 -16 3
000010 18 fb fa 48 fd 0b dd df fa 0a e1 16 81 18 05 eb
       24 -5 -6 72 -3 11 -35 -33 -6 10 -31 22 -127 24 5 -21
000020 ee 1e fb 3b 04 14 12 0a ee 28 34 57 2e e3 d1 08
       -18 30 -5 59 4 20 18 10 -18 40 52 87 46 -29 -47 8
000030 e9 2f 1a 09 0a 0e f3 e0 0e d7 30 0d c4 ce c6 dc
       -23 47 26 9 10 14 -13 -32 14 -41 48 13 -60 -50 -58 -36
000040 01 6e 3a 0b e9 f8 15 00 ed 1c 16 d4 d3 d0 05 fa
       1 110 58 11 -23 -8 21 0 -19 28 22 -44 -45 -48 5 -6
000050 3d f8 1c 48 ea 2b ee 48 0c f6 15 0f d2 fb ad 06
       61 -8 28 72 -22 43 -18 72 12 -10 21 15 -46 -5 -83 6
000060 01 03 fd f1 07 c6 37 0d cc 1b 0d 19 c9 09 fd 03
       1 3 -3 -15 7 -58 55 13 -52 27 13 25 -55 9 -3 3
000070 e4 f5 dd 16 ce 41 28 00 eb 03 ee f0 00 fa 15 e9
       -28 -11 -35 22 -50 65 40 0 -21 3 -18 -16 0 -6 21 -23
000080 06 e7 03 10 d8 1c da 01 bf ff 1d e8 01 cc f5 f7
       6 -25 3 16 -40 28 -38 1 -65 -1 29 -24 1 -52 -11 -9
000090 2c f5 fe fb e7 1a 91 ff 18 fe 7f 03 32 58 03 eb
       44 -11 -2 -5 -25 26 -111 -1 24 -2 127 3 50 88 3 -21
0000a0 f4 fb 0e e5 08 d7 24 00 01 75 fb 46 b8 46 38 12
       -12 -5 14 -27 8 -41 36 0 1 117 -5 70 -72 70 56 18
0000b0 d8 e9 25 09 52 3d f8 34 dc 27 0f 3d f9 1e 0a f9
       -40 -23 37 9 82 61 -8 52 -36 39 15 61 -7 30 10 -7
0000c0 ba dc ef 77 ec d6 81 f8 b8 00 27 1c 02 1e 00 49
       -70 -36 -17 119 -20 -42 -127 -8 -72 0 39 28 2 30 0 73
0000d0 e7 04 d2 2d 16 ce e4 36 0e 22 ea f9 f3 01 0d 9b
       -25 4 -46 45 22 -50 -28 54 14 34 -22 -7 -13 1 13 -101
0000e0 eb b9 1e f8 b4 07 15 f4 6a 21 47 1c bf 24 c9 f2
       -21 -71 30 -8 -76 7 21 -12 106 33 71 28 -65 36 -55 -14
0000f0 01 b3 f0 20 6e f3 c5 0c 43 f7 24 ee eb 18 3c 52
       1 -77 -16 32 110 -13 -59 12 67 -9 36 -18 -21 24 60 82

model/batch_normalization_26/FusedBatchNormV3;StatefulPartitionedCall/model/batch_normalization_26/FusedBatchNormV3;model/depthwise_conv2d_8/depthwise;StatefulPartitionedCall/model/depthwise_conv2d_8/depthwise;model/conv2d_26/Conv2D;StatefulPartitionedCall/model/conv2d_26/Conv2D i1 [1, 3, 3, 96]
000000 22 ba 0d e4 20 28 03 67 d5 fb 0b f9 1b 16 02 cd
       34 -70 13 -28 32 40 3 103 -43 -5 11 -7 27 22 2 -51
000010 0f 44 18 ac f8 f9 23 1e 04 ce 1b de 11 e3 f3 1d
       15 68 24 -84 -8 -7 35 30 4 -50 27 -34 17 -29 -13 29
000020 5e ea e4 00 c3 2e f6 10 b3 0a f2 d9 11 8b 0a f7
       94 -22 -28 0 -61 46 -10 16 -77 10 -14 -39 17 -117 10 -9
000030 4c d0 0c fd d7 07 f5 ee bf d1 15 05 18 39 20 f8
       76 -48 12 -3 -41 7 -11 -18 -65 -47 21 5 24 57 32 -8
000040 01 2a c9 15 0e f0 dc 11 16 03 0f e9 09 b3 e8 d6
       1 42 -55 21 14 -16 -36 17 22 3 15 -23 9 -77 -24 -42
000050 ea c0 54 20 3e 7c 0a 15 48 06 2a 11 f0 f0 d6 fe
       -22 -64 84 32 62 124 10 21 72 6 42 17 -16 -16 -42 -2
000060 07 be 41 d0 16 41 4f 03 9d 63 13 5f 1d 62 f9 81
       7 -66 65 -48 22 65 79 3 -99 99 19 95 29 98 -7 -127
000070 7f 13 56 92 10 d8 1e 35 06 c8 af fc f7 a7 e1 f5
       127 19 86 -110 16 -40 30 53 6 -56 -81 -4 -9 -89 -31 -11
000080 f5 60 e5 48 29 7f 67 00 8b c5 c8 aa 42 9e 1b e1
       -11 96 -27 72 41 127 103 0 -117 -59 -56 -86 66 -98 27 -31
000090 6c eb 38 a4 af 30 1f b2 b6 14 38 03 40 4e ff ef
       108 -21 56 -92 -81 48 31 -78 -74 20 56 3 64 78 -1 -17
0000a0 1a 43 69 06 e4 a0 02 45 f3 79 33 fa 1a 8a 6e d7
       26 67 105 6 -28 -96 2 69 -13 121 51 -6 26 -118 110 -41
0000b0 97 cd 68 50 60 7f 1d 15 71 53 5f 96 4b 25 bb cb
       -105 -51 104 80 96 127 29 21 113 83 95 -106 75 37 -69 -53
0000c0 c6 c2 25 e5 fa 34 45 a0 c9 7f ce 4d 1e c3 09 a7
       -58 -62 37 -27 -6 52 69 -96 -55 127 -50 77 30 -61 9 -89
0000d0 78 b9 4c 81 1b d1 1c a3 f8 60 5f 05 e2 bd 19 d5
       120 -71 76 -127 27 -47 28 -93 -8 96 95 5 -30 -67 25 -43
0000e0 ce a8 f0 2c 4f 7b 97 e8 a1 a6 c6 ce 5a f5 07 1a
       -50 -88 -16 44 79 123 -105 -24 -95 -90 -58 -50 90 -11 7 26
0000f0 2d 4f bc a4 b2 2d 28 e3 00 30 2b 0d 3d 1b ec ef
       45 79 -68 -92 -78 45 40 -29 0 48 43 13 61 27 -20 -17

model/conv2d_17/Conv2D;StatefulPartitionedCall/model/conv2d_17/Conv2D i1 [96, 1, 1, 16]
000000 02 bc 21 ff 9c d2 3d 19 4c 36 dd 85 81 1a d8 07
       2 -68 33 -1 -100 -46 61 25 76 54 -35 -123 -127 26 -40 7
000010 d4 de e7 29 d8 ef 1f 88 ee f6 f3 81 32 1b 20 d0
       -44 -34 -25 41 -40 -17 31 -120 -18 -10 -13 -127 50 27 32 -48
000020 ff bb a5 ea 04 16 ce 0d f2 0f 16 da 10 e9 f3 81
       -1 -69 -91 -22 4 22 -50 13 -14 15 22 -38 16 -23 -13 -127
000030 00 c1 30 03 be 50 31 2c e2 ce 49 7f 17 e8 70 3d
       0 -63 48 3 -66 80 49 44 -30 -50 73 127 23 -24 112 61
000040 bf 17 f6 81 eb ef e2 43 b4 38 15 d8 2f 3e ce d0
       -65 23 -10 -127 -21 -17 -30 67 -76 56 21 -40 47 62 -50 -48
000050 81 32 9f d6 b4 11 ec df 22 fc f5 db ef a3 52 c7
       -127 50 -97 -42 -76 17 -20 -33 34 -4 -11 -37 -17 -93 82 -57
000060 b7 35 fd d4 c5 2a 2b db 81 f7 24 75 d1 b4 ce 62
       -73 53 -3 -44 -59 42 43 -37 -127 -9 36 117 -47 -76 -50 98
000070 32 23 1f 20 bd 11 26 09 3c 0e 15 09 19 dc f9 81
       50 35 31 32 -67 17 38 9 60 14 21 9 25 -36 -7 -127
000080 44 24 36 d7 66 bb ed 7f 09 22 c9 3a 25 03 f9 71
       68 36 54 -41 102 -69 -19 127 9 34 -55 58 37 3 -7 113
000090 23 f9 b2 03 ad 9a 25 22 c6 b5 26 db 15 81 4c 3b
       35 -7 -78 3 -83 -102 37 34 -58 -75 38 -37 21 -127 76 59
0000a0 d8 0b b2 b9 02 47 eb 01 81 37 30 50 e0 ec 07 44
       -40 11 -78 -71 2 71 -21 1 -127 55 48 80 -32 -20 7 68
0000b0 46 f3 f4 29 15 ec 7f 06 04 0a cd 39 1b d3 64 35
       70 -13 -12 41 21 -20 127 6 4 10 -51 57 27 -45 100 53
0000c0 d3 b3 7d 58 17 ba d2 cc de 13 81 13 d9 ac 92 05
       -45 -77 125 88 23 -70 -46 -52 -34 19 -127 19 -39 -84 -110 5
0000d0 b6 a0 c8 d4 e0 cd 0e 14 ef 09 7c 0d 90 0a 81 14
       -74 -96 -56 -44 -32 -51 14 20 -17 9 124 13 -112 10 -127 20
0000e0 1b e1 de 9e d4 7f bc 3d 00 30 2d 0d 05 d8 ed ec
       27 -31 -34 -98 -44 127 -68 61 0 48 45 13 5 -40 -19 -20
0000f0 c1 44 98 39 7f ca 03 00 aa c1 fa 13 3e f0 eb e9
       -63 68 -104 57 127 -54 3 0 -86 -63 -6 19 62 -16 -21 -23

model/conv2d_16/Conv2D;StatefulPartitionedCall/model/conv2d_16/Conv2D i1 [16, 1, 1, 96]
000000 bc f3 2a dc 4d 33 b4 3f f3 20 2f 2b 15 04 ff 29
       -68 -13 42 -36 77 51 -76 63 -13 32 47 43 21 4 -1 41
000010 37 e8 b4 fa ee e2 36 ed 28 b9 1f 54 ba 56 16 f7
       55 -24 -76 -6 -18 -30 54 -19 40 -71 31 84 -70 86 22 -9
000020 da b8 eb ef 56 0d 11 4c d6 10 e6 dd d6 ff c9 fe
       -38 -72 -21 -17 86 13 17 76 -42 16 -26 -35 -42 -1 -55 -2
000030 33 0b 1c d5 f0 36 0c 14 81 e3 37 05 dc 01 04 fd
       51 11 28 -43 -16 54 12 20 -127 -29 55 5 -36 1 4 -3
000040 2d ef 36 ac f1 24 2d 29 27 27 25 ee 45 3e c5 cd
       45 -17 54 -84 -15 36 45 41 39 39 37 -18 69 62 -59 -51
000050 30 d7 b9 fb 01 26 2b d7 41 e5 f5 da 28 fc 2b fa
       48 -41 -71 -5 1 38 43 -41 65 -27 -11 -38 40 -4 43 -6
000060 2a e6 2c 1d f2 da ef ec 72 f9 01 b2 3b cd ea d6
       42 -26 44 29 -14 -38 -17 -20 114 -7 1 -78 59 -51 -22 -42
000070 cd 0e 25 a0 e1 ff 66 b3 1a 27 6e 3a c1 53 31 e7
       -51 14 37 -96 -31 -1 102 -77 26 39 110 58 -63 83 49 -25
000080 23 31 4f 9d 10 36 23 4f 17 06 a9 9d 09 ef f8 cd
       35 49 79 -99 16 54 35 79 23 6 -87 -99 9 -17 -8 -51
000090 00 bf ea c3 ff 0c 96 22 08 16 27 09 bd 3f 81 dd
       0 -65 -22 -61 -1 12 -106 34 8 22 39 9 -67 63 -127 -35
0000a0 e4 2b ff db 39 c4 1a 2c 6d 0f 13 c2 f5 24 47 34
       -28 43 -1 -37 57 -60 26 44 109 15 19 -62 -11 36 71 52
0000b0 db 16 f0 41 f4 aa dd ff 0c 6f ca f7 d9 c0 04 39
       -37 22 -16 65 -12 -86 -35 -1 12 111 -54 -9 -39 -64 4 57
0000c0 d9 eb 5d 9c 47 4b f3 f7 2a 3b ff dc 3d f1 0c 7f
       -39 -21 93 -100 71 75 -13 -9 42 59 -1 -36 61 -15 12 127
0000d0 e3 15 e8 df dc fa f2 df 20 d6 2f 45 fa 21 12 34
       -29 21 -24 -33 -36 -6 -14 -33 32 -42 47 69 -6 33 18 52
0000e0 e7 c0 d8 ed 10 01 25 09 1c 3b 17 e0 c6 1c e8 f5
       -25 -64 -40 -19 16 1 37 9 28 59 23 -32 -58 28 -24 -11
0000f0 12 2a f6 a5 a7 f1 e7 47 c0 e4 37 29 13 2b d0 f5
       18 42 -10 -91 -89 -15 -25 71 -64 -28 55 41 19 43 -48 -11

model/batch_normalization_23/FusedBatchNormV3;StatefulPartitionedCall/model/batch_normalization_23/FusedBatchNormV3;model/depthwise_conv2d_7/depthwise;StatefulPartitionedCall/model/depthwise_conv2d_7/depthwise;model/conv2d_26/Conv2D;StatefulPartitionedCall/model/conv2d_26/Conv2D i1 [1, 3, 3, 96]
000000 0a 1b fc ec 2c 0c 21 49 38 b2 e6 3d ca 03 2c 59
       10 27 -4 -20 44 12 33 73 56 -78 -26 61 -54 3 44 89
000010 f5 81 c9 f5 3e a6 81 81 17 b1 da fd 05 08 31 52
       -11 -127 -55 -11 62 -90 -127 -127 23 -79 -38 -3 5 8 49 82
000020 3f 04 e7 12 69 c3 b7 1d 11 c7 81 bc d9 81 96 ab
       63 4 -25 18 105 -61 -73 29 17 -57 -127 -68 -39 -127 -106 -85
000030 29 4f 5a 46 1b 3f e1 41 b6 e4 19 54 d4 ee 19 0a
       41 79 90 70 27 63 -31 65 -74 -28 25 84 -44 -18 25 10
000040 0f 7f 7f ad 45 99 11 0b 78 f1 ec f2 6b 7f bc a9
       15 127 127 -83 69 -103 17 11 120 -15 -20 -14 107 127 -68 -87
000050 df 2a 0e e4 1d ef 93 f1 ed 0c c1 d8 4f 7f fd 3a
       -33 42 14 -28 29 -17 -109 -15 -19 12 -63 -40 79 127 -3 58
000060 68 2e 95 7f 81 a6 7f cd 22 96 6b 33 b2 ee ff 30
       104 46 -107 127 -127 -90 127 -51 34 -106 107 51 -78 -18 -1 48
000070 f0 a2 06 1f 31 23 c7 c0 c7 d2 eb 7f b4 2b 28 57
       -16 -94 6 31 49 35 -57 -64 -57 -46 -21 127 -76 43 40 87
000080 cb 81 d4 9a 48 d9 c9 17 e7 fd ab bf 4e e2 7f e3
       -53 -127 -44 -102 72 -39 -55 23 -25 -3 -85 -65 78 -30 127 -29
000090 81 7f 74 f3 7f e6 8f 7f aa 7f 7f 7f 81 7f 3c 73
       -127 127 116 -13 127 -26 -113 127 -86 127 127 127 -127 127 60 115
0000a0 dd 02 71 23 b3 f4 7c 76 7f 8f b0 7f 29 e4 7f 9b
       -35 2 113 35 -77 -12 124 118 127 -113 -80 127 41 -28 127 -101
0000b0 ea 3f 1b d4 8d 5f 81 0e 53 f9 e8 7f 38 14 ec 7f
       -22 63 27 -44 -115 95 -127 14 83 -7 -24 127 56 20 -20 127
0000c0 81 1b 68 66 ed ff 06 1e 10 b7 25 14 c6 14 ca 7f
       -127 27 104 102 -19 -1 6 30 16 -73 37 20 -58 20 -54 127
0000d0 08 82 2b f5 dd c7 9d cd db bb 06 35 06 f8 35 72
       8 -126 43 -11 -35 -57 -99 -51 -37 -69 6 53 6 -8 53 114
0000e0 e4 7c fa 3c 71 67 7f 3d 06 4d 98 d1 81 2c e3 e0
       -28 124 -6 60 113 103 127 61 6 77 -104 -47 -127 44 -29 -32
0000f0 b0 6e 7f e8 1d fd 91 1d 7f f7 04 11 e5 20 25 36
       -80 110 127 -24 29 -3 -111 29 127 -9 4 17 -27 32 37 54

model/conv2d_15/Conv2D;StatefulPartitionedCall/model/conv2d_15/Conv2D i1 [96, 1, 1, 16]
000000 6b f2 50 da f1 4e 31 07 05 45 e2 81 e0 bd bc 19
       107 -14 80 -38 -15 78 49 7 5 69 -30 -127 -32 -67 -68 25
000010 b8 f4 cf d5 37 a9 41 81 fd 10 6e 4c cc ac b9 68
       -72 -12 -49 -43 55 -87 65 -127 -3 16 110 76 -52 -84 -71 104
000020 43 14 7f e4 0b 41 d0 ab df 45 dc d3 e5 f9 17 ed
       67 20 127 -28 11 65 -48 -85 -33 69 -36 -45 -27 -7 23 -19
000030 05 fe 2b e3 fb 46 49 d0 7f f4 12 f5 f5 fe a5 fe
       5 -2 43 -29 -5 70 73 -48 127 -12 18 -11 -11 -2 -91 -2
000040 e7 f3 81 2f f7 a7 52 0c f1 0e 27 32 53 d5 03 02
       -25 -13 -127 47 -9 -89 82 12 -15 14 39 50 83 -43 3 2
000050 4e 05 3d 5a fb d3 22 b1 58 16 81 24 1c f9 30 08
       78 5 61 90 -5 -45 34 -79 88 22 -127 36 28 -7 48 8
000060 c1 f8 d7 79 ee 12 0c e1 9b d4 51 cd d7 a2 81 70
       -63 -8 -41 121 -18 18 12 -31 -101 -44 81 -51 -41 -94 -127 112
000070 1f a3 18 3c 16 66 0d fe 3e db 0a 81 20 07 b6 7e
       31 -93 24 60 22 102 13 -2 62 -37 10 -127 32 7 -74 126
000080 d3 e1 81 e1 f5 4b 66 34 ab 4e d1 36 e0 b7 1c f8
       -45 -31 -127 -31 -11 75 102 52 -85 78 -47 54 -32 -73 28 -8
000090 14 de 1c d0 f4 20 32 24 41 1f 05 fc 7f e3 91 10
       20 -34 28 -48 -12 32 50 36 65 31 5 -4 127 -29 -111 16
0000a0 49 43 be 78 d3 f1 e1 d0 e5 e7 da 92 81 f7 f1 60
       73 67 -66 120 -45 -15 -31 -48 -27 -25 -38 -110 -127 -9 -15 96
0000b0 cb 2b e8 31 5f a4 60 f7 e2 39 50 67 d5 ce 7f 59
       -53 43 -24 49 95 -92 96 -9 -30 57 80 103 -43 -50 127 89
0000c0 08 b6 03 d8 04 81 c7 1b 25 fc 28 51 fe c2 95 e6
       8 -74 3 -40 4 -127 -57 27 37 -4 40 81 -2 -62 -107 -26
0000d0 0d bd fc 01 cc 7f 22 41 df fc 11 05 9a f1 c7 df
       13 -67 -4 1 -52 127 34 65 -33 -4 17 5 -102 -15 -57 -33
0000e0 07 2d f6 a0 93 78 08 28 26 9e d3 7f af 85 34 f5
       7 45 -10 -96 -109 120 8 40 38 -98 -45 127 -81 -123 52 -11
0000f0 81 1b 2a 33 3a d2 49 25 f1 dc f2 48 9c ad 67 6a
       -127 27 42 51 58 -46 73 37 -15 -36 -14 72 -100 -83 103 106

model/conv2d_14/Conv2D;StatefulPartitionedCall/model/conv2d_14/Conv2D i1 [16, 1, 1, 48]
000000 05 fc fb 64 4f 0a 0c 02 ad 36 0d b5 11 28 39 31
       5 -4 -5 100 79 10 12 2 -83 54 13 -75 17 40 57 49
000010 0d f5 e5 22 29 0d 9b 11 36 4a 43 0c e0 bb 21 30
       13 -11 -27 34 41 13 -101 17 54 74 67 12 -32 -69 33 48
000020 ed f4 7f 1c 12 94 fd cb d4 14 3e 21 19 fe c3 4c
       -19 -12 127 28 18 -108 -3 -53 -44 20 62 33 25 -2 -61 76
000030 81 e4 15 dd 99 ec d0 5f fa a3 d4 fe c8 1d 11 1a
       -127 -28 21 -35 -103 -20 -48 95 -6 -93 -44 -2 -56 29 17 26
000040 2d 69 21 b1 05 03 17 db 75 f2 2c 2c 1b c4 bf e0
       45 105 33 -79 5 3 23 -37 117 -14 44 44 27 -60 -65 -32
000050 f5 0b 45 19 75 6e 1b 3c ea f4 7d 0f 19 f9 37 44
       -11 11 69 25 117 110 27 60 -22 -12 125 15 25 -7 55 68
000060 eb e4 32 ec 07 f4 42 c3 02 09 0c c8 d9 fb 40 2d
       -21 -28 50 -20 7 -12 66 -61 2 9 12 -56 -39 -5 64 45
000070 d2 fe 3d 42 5a db 28 08 b5 fd 96 d8 ec 90 81 e2
       -46 -2 61 66 90 -37 40 8 -75 -3 -106 -40 -20 -112 -127 -30
000080 92 ef 18 f0 5f 3c 07 bf db 0e 23 17 00 cf d9 d2
       -110 -17 24 -16 95 60 7 -65 -37 14 35 23 0 -49 -39 -46
000090 f5 e0 0a fb ed c9 41 41 95 3b 02 2f 03 02 03 a6
       -11 -32 10 -5 -19 -55 65 65 -107 59 2 47 3 2 3 -90
0000a0 0a 18 fb 35 09 0f 15 a0 d9 bf e8 0a 4b 04 d1 cb
       10 24 -5 53 9 15 21 -96 -39 -65 -24 10 75 4 -47 -53
0000b0 53 39 48 d8 d3 01 29 ea 81 f0 03 17 ca 18 de 04
       83 57 72 -40 -45 1 41 -22 -127 -16 3 23 -54 24 -34 4
0000c0 2c b3 e7 07 c0 e6 d8 0c dc 7a ab de f9 00 38 3a
       44 -77 -25 7 -64 -26 -40 12 -36 122 -85 -34 -7 0 56 58
0000d0 64 f3 01 06 3b dc cc c4 42 d0 ef a4 eb 0b d9 10
       100 -13 1 6 59 -36 -52 -60 66 -48 -17 -92 -21 11 -39 16
0000e0 81 61 a1 e1 be 00 b2 f0 08 17 8f 32 e7 32 7c 0f
       -127 97 -95 -31 -66 0 -78 -16 8 23 -113 50 -25 50 124 15
0000f0 fc ee cc 30 16 00 e9 b1 fa ca 0f 02 34 e9 c3 f9
       -4 -18 -52 48 22 0 -23 -79 -6 -54 15 2 52 -23 -61 -7

model/batch_normalization_20/FusedBatchNormV3;StatefulPartitionedCall/model/batch_normalization_20/FusedBatchNormV3;model/depthwise_conv2d_6/depthwise;StatefulPartitionedCall/model/depthwise_conv2d_6/depthwise;model/conv2d_24/Conv2D;StatefulPartitionedCall/model/conv2d_24/Conv2D i1 [1, 3, 3, 48]
000000 e9 15 f5 00 06 e6 de 12 e5 13 fe 7e 05 f7 eb 10
       -23 21 -11 0 6 -26 -34 18 -27 19 -2 126 5 -9 -21 16
000010 01 20 db ec 16 12 31 07 06 b5 f5 f0 fd ef f3 11
       1 32 -37 -20 22 18 49 7 6 -75 -11 -16 -3 -17 -13 17
000020 f7 dc 1e 0c e4 0f f0 c5 e0 1e 33 fd e6 e9 09 e8
       -9 -36 30 12 -28 15 -16 -59 -32 30 51 -3 -26 -23 9 -24
000030 4d 99 ff ec 08 cf f9 f0 de f2 0d a6 7c e8 6d c4
       77 -103 -1 -20 8 -49 -7 -16 -34 -14 13 -90 124 -24 109 -60
000040 d0 c0 e6 f4 d2 d9 37 7f 02 ac f6 5e 7f 7f 33 cc
       -48 -64 -26 -12 -46 -39 55 127 2 -84 -10 94 127 127 51 -52
000050 7f 2d d3 e7 d8 ed ef b8 b9 27 21 db 2a fd c5 40
       127 45 -45 -25 -40 -19 -17 -72 -71 39 33 -37 42 -3 -59 64
000060 02 f4 eb 0c 03 fc d9 02 38 1d fa 19 0c 27 0d e6
       2 -12 -21 12 3 -4 -39 2 56 29 -6 25 12 39 13 -26
000070 fb de 37 19 07 dc 25 23 00 94 ed 4d 43 e7 18 f5
       -5 -34 55 25 7 -36 37 35 0 -108 -19 77 67 -25 24 -11
000080 04 00 f7 d0 ed 0a d6 7f d2 dd a7 1c 00 28 a3 a9
       4 0 -9 -48 -19 10 -42 127 -46 -35 -89 28 0 40 -93 -87
000090 f0 b0 6d fc dd f3 f8 0e e1 28 01 d7 28 d2 f1 cf
       -16 -80 109 -4 -35 -13 -8 14 -31 40 1 -41 40 -46 -15 -49
0000a0 c1 15 e8 04 f2 a0 2a ee fb f0 ed e0 ab 09 08 03
       -63 21 -24 4 -14 -96 42 -18 -5 -16 -19 -32 -85 9 8 3
0000b0 fe 21 5d 7f dd 29 f3 09 41 1f e4 bf eb 3e 03 db
       -2 33 93 127 -35 41 -13 9 65 31 -28 -65 -21 62 3 -37
0000c0 7f 60 7f 47 7f 7f 7f 81 d7 95 81 81 9f b2 33 c9
       127 96 127 71 127 127 127 -127 -41 -107 -127 -127 -97 -78 51 -55
0000d0 81 98 7f 81 9a 81 9e cb 7f 81 7f a0 11 3a 5d 7f
       -127 -104 127 -127 -102 -127 -98 -53 127 -127 127 -96 17 58 93 127
0000e0 17 7f 17 ef 7f 81 11 dc 0c 7f 81 c8 2e 81 2d 52
       23 127 23 -17 127 -127 17 -36 12 127 -127 -56 46 -127 45 82
0000f0 ff b4 97 e2 e9 d3 56 cc 4f f8 df 1d 44 56 1f ce
       -1 -76 -105 -30 -23 -45 86 -52 79 -8 -33 29 68 86 31 -50

model/conv2d_13/Conv2D;StatefulPartitionedCall/model/conv2d_13/Conv2D i1 [48, 1, 1, 8]
000000 f6 45 81 ac f2 62 18 d6 1b 45 7b 06 81 c3 2d 03
       -10 69 -127 -84 -14 98 24 -42 27 69 123 6 -127 -61 45 3
000010 f1 ad 1f 4c 7f 6f 82 7f 7f c7 02 de 0c 23 41 02
       -15 -83 31 76 127 111 -126 127 127 -57 2 -34 12 35 65 2
000020 f5 d6 f2 ee fa 07 7f a0 e9 9e b3 7f bf 55 66 08
       -11 -42 -14 -18 -6 7 127 -96 -23 -98 -77 127 -65 85 102 8
000030 2b d2 f8 ea 46 32 81 2d 16 81 fc 1f fb 44 5d e2
       43 -46 -8 -22 70 50 -127 45 22 -127 -4 31 -5 68 93 -30
000040 8f be 11 81 db de ff 66 fe ff 5b bc 7f e5 44 e7
       -113 -66 17 -127 -37 -34 -1 102 -2 -1 91 -68 127 -27 68 -25
000050 ae 6f d4 0e 07 07 81 03 85 ee 04 81 ef 1c af 1d
       -82 111 -44 14 7 7 -127 3 -123 -18 4 -127 -17 28 -81 29
000060 ff df c0 fd 39 0d 81 fe 1c 81 f7 21 e4 01 76 c6
       -1 -33 -64 -3 57 13 -127 -2 28 -127 -9 33 -28 1 118 -58
000070 52 b6 ae f5 93 81 c7 b7 ed d2 1a 1d 21 f5 7f f4
       82 -74 -82 -11 -109 -127 -57 -73 -19 -46 26 29 33 -11 127 -12
000080 d2 a5 44 f3 20 7f c2 9e 6c 0d dd ce f1 de 3e 7f
       -46 -91 68 -13 32 127 -62 -98 108 13 -35 -50 -15 -34 62 127
000090 39 4b c5 7f 26 ed 06 03 24 35 3c f6 d1 03 7f f2
       57 75 -59 127 38 -19 6 3 36 53 60 -10 -47 3 127 -14
0000a0 22 e7 a5 4f 81 20 7d fa 9a ed 1a 33 cc c8 be 81
       34 -25 -91 79 -127 32 125 -6 -102 -19 26 51 -52 -56 -66 -127
0000b0 11 56 ad b4 84 7f 13 0c 21 01 ac 31 22 fc 68 7f
       17 86 -83 -76 -124 127 19 12 33 1 -84 49 34 -4 104 127
0000c0 ee 03 7e 55 81 ff be 41 19 81 ce 7a e5 37 2e 76
       -18 3 126 85 -127 -1 -66 65 25 -127 -50 122 -27 55 46 118
0000d0 0a 0c 19 f6 d4 e6 7f ea dc 40 df 7f 89 e1 22 e1
       10 12 25 -10 -44 -26 127 -22 -36 64 -33 127 -119 -31 34 -31
0000e0 2d b8 7f 68 ae 22 1a 4a ef a7 ac 45 81 1b 59 29
       45 -72 127 104 -82 34 26 74 -17 -89 -84 69 -127 27 89 41
0000f0 09 07 de f1 81 db 07 a0 bc f2 be ff dc f8 7f fc
       9 7 -34 -15 -127 -37 7 -96 -68 -14 -66 -1 -36 -8 127 -4

model/conv2d_12/Conv2D;StatefulPartitionedCall/model/conv2d_12/Conv2D i1 [8, 1, 1, 48]
000000 0d ca 1e 0a fe ef 0a a5 22 1f 15 1c c7 cf a8 b7
       13 -54 30 10 -2 -17 10 -91 34 31 21 28 -57 -49 -88 -73
000010 56 d4 b1 8c c5 35 1e 11 e7 4e 2e 09 d4 2b 04 a5
       86 -44 -79 -116 -59 53 30 17 -25 78 46 9 -44 43 4 -91
000020 13 cb a9 77 c8 04 2c 81 0a 29 fb d7 1a c4 b8 19
       19 -53 -87 119 -56 4 44 -127 10 41 -5 -41 26 -60 -72 25
000030 0f 42 18 19 e6 2d d7 2d 44 e4 3b b6 c8 2e 9b d1
       15 66 24 25 -26 45 -41 45 68 -28 59 -74 -56 46 -101 -47
000040 6a 1a 29 ff 31 06 c3 2e 08 ca de c0 1a 3f fc 37
       106 26 41 -1 49 6 -61 46 8 -54 -34 -64 26 63 -4 55
000050 72 6c 30 7f 0f e8 0f 3e bd 9c 7f bb ab d4 22 18
       114 108 48 127 15 -24 15 62 -67 -100 127 -69 -85 -44 34 24
000060 09 04 4f 4c 09 41 fd 1d ba cc a1 b3 ad 1d 08 e4
       9 4 79 76 9 65 -3 29 -70 -52 -95 -77 -83 29 8 -28
000070 0a 02 2e b6 1d 45 0f 38 16 df 33 25 2b 27 2a 02
       10 2 46 -74 29 69 15 56 22 -33 51 37 43 39 42 2
000080 08 f5 d7 01 40 4c 27 b6 44 f2 de 81 f8 33 e2 4f
       8 -11 -41 1 64 76 39 -74 68 -14 -34 -127 -8 51 -30 79
000090 24 10 2d b3 1f a1 4d fc 44 13 17 fc 0e 2e ab fb
       36 16 45 -77 31 -95 77 -4 68 19 23 -4 14 46 -85 -5
0000a0 a7 81 05 df 30 4e fa bf 0c 75 0e 1f 3d bf 9f 15
       -89 -127 5 -33 48 78 -6 -65 12 117 14 31 61 -65 -97 21
0000b0 8f 40 f2 d2 d6 b4 d0 f3 0e 3b ca 1c 11 dd 4b c2
       -113 64 -14 -46 -42 -76 -48 -13 14 59 -54 28 17 -35 75 -62
0000c0 e6 31 26 1f c0 30 d3 2d e2 ea bc c5 4a 04 f0 01
       -26 49 38 31 -64 48 -45 45 -30 -22 -68 -59 74 4 -16 1
0000d0 2a 14 16 20 f5 c3 db fc 37 d1 06 b8 fa f0 18 f1
       42 20 22 32 -11 -61 -37 -4 55 -47 6 -72 -6 -16 24 -15
0000e0 12 2c 54 09 26 fd 7f d9 19 d2 df d9 ec 34 ad 0b
       18 44 84 9 38 -3 127 -39 25 -46 -33 -39 -20 52 -83 11
0000f0 51 f3 f4 f5 06 dc e6 94 f3 ed c8 c5 de a2 d9 bd
       81 -13 -12 -11 6 -36 -26 -108 -13 -19 -56 -59 -34 -94 -39 -67
