tools/tinyml_generator/model/yolo_person_detect.tflite (tflite, 231368 bytes, 44 tensors)

model/conv2d/Conv2D;StatefulPartitionedCall/model/conv2d/Conv2D i1 [8, 3, 3, 3]
-6 -23 16 -15 15 -14 33 49
53 1 -21 39 12 0 -7 103
91 127 -5 -7 29 24 0 -1
86 48 91 -28 27 4 -31 31
1 25 -27 2 -126 119 17 -127
105 26 21 -23 -4 -91 89 6
-94 81 20 19 -27 -2 3 -8
6 -3 9 -1 12 44 -62 -112
-23 127 -110 5 105 25 18 -46
-100 -32 120 -79 -16 94 38 12
-50 -14 -2 1 7 -14 10 -6
24 -11 23 -8 12 -60 -98 -40
4 26 18 23 -7 0 -71 -127
-80 9 14 15 6 -14 9 -10
-82 89 -38 -103 123 11 -3 -3
-25 -76 91 -47 -94 127 15 21
-27 -1 -16 18 14 -22 30 -7
4 1 -14 9 -19 -4 -6 14
1 -24 29 0 -15 2 -74 -116
-45 -6 -33 37 32 -3 4 -50
-127 -71 45 -39 -6 24 -22 4
-33 15 12 127 -88 -36 76 -87
21 -21 -12 30 105 -88 -25 56
-80 32 -18 -17 35 42 -7 30
-56 -38 -71 19 -2 28 61 34
20 -127 -118 -117 -2 51 26 51
16 16 -97 -35 -93 -5 38 5
00000000: fae9 10f1 0ff2 2131 3501 eb27 0c00 f967
00000010: 5b7f fbf9 1d18 00ff 5630 5be4 1b04 e11f
00000020: 0119 e502 8277 1181 691a 15e9 fca5 5906
00000030: a251 1413 e5fe 03f8 06fd 09ff 0c2c c290
00000040: e97f 9205 6919 12d2 9ce0 78b1 f05e 260c
00000050: cef2 fe01 07f2 0afa 18f5 17f8 0cc4 9ed8
00000060: 041a 1217 f900 b981 b009 0e0f 06f2 09f6
00000070: ae59 da99 7b0b fdfd e7b4 5bd1 a27f 0f15
00000080: e5ff f012 0eea 1ef9 0401 f209 edfc fa0e
00000090: 01e8 1d00 f102 b68c d3fa df25 20fd 04ce
000000a0: 81b9 2dd9 fa18 ea04 df0f 0c7f a8dc 4ca9
000000b0: 15eb f41e 69a8 e738 b020 eeef 232a f91e
000000c0: c8da b913 fe1c 3d22 1481 8a8b fe33 1a33
000000d0: 1010 9fdd a3fb 2605

model/conv2d_1/Conv2D;StatefulPartitionedCall/model/conv2d_1/Conv2D i1 [8, 1, 1, 8]
127 19 5 -4 12 -22 16 15
-2 -127 -69 -8 -19 23 52 13
127 -10 17 -37 -1 -60 22 -31
-119 -10 7 22 14 127 -20 6
-11 -11 -127 18 -11 -21 116 11
-39 34 -12 90 -24 -2 -42 127
-16 15 -36 -9 -127 -13 -12 -1
-46 40 -2 -115 -2 29 19 -127
00000000: 7f13 05fc 0cea 100f fe81 bbf8 ed17 340d
00000010: 7ff6 11db ffc4 16e1 89f6 0716 0e7f ec06
00000020: f5f5 8112 f5eb 740b d922 f45a e8fe d67f
00000030: f00f dcf7 81f3 f4ff d228 fe8d fe1d 1381

model/batch_normalization_2/FusedBatchNormV3;StatefulPartitionedCall/model/batch_normalization_2/FusedBatchNormV3;model/depthwise_conv2d/depthwise;StatefulPartitionedCall/model/depthwise_conv2d/depthwise;model/conv2d_12/Conv2D;StatefulPartitionedCall/model/conv2d_12/Conv2D i1 [1, 3, 3, 8]
30 -6 8 -4 -12 -4 -20 1
-30 -9 50 -61 -14 4 -18 20
-9 -48 37 -22 55 42 -11 30
-125 -9 10 -35 9 21 -17 15
19 -6 -127 127 67 48 127 50
127 127 -9 6 -127 -127 27 -127
6 -11 9 -1 -4 -1 -38 2
-13 -5 -1 15 -15 16 113 19
-1 -9 13 -11 39 9 46 -16
00000000: 1efa 08fc f4fc ec01 e2f7 32c3 f204 ee14
00000010: f7d0 25ea 372a f51e 83f7 0add 0915 ef0f
00000020: 13fa 817f 4330 7f32 7f7f f706 8181 1b81
00000030: 06f5 09ff fcff da02 f3fb ff0f f110 7113
00000040: fff7 0df5 2709 2ef0

model/conv2d_2/Conv2D;StatefulPartitionedCall/model/conv2d_2/Conv2D i1 [4, 1, 1, 8]
-22 68 -67 -28 -49 127 -45 -108
38 15 -94 -86 -31 -36 127 29
70 122 104 66 -110 -6 37 127
-87 127 77 57 -109 -2 -20 65
00000000: ea44 bde4 cf7f d394 260f a2aa e1dc 7f1d
00000010: 467a 6842 92fa 257f a97f 4d39 93fe ec41

model/conv2d_3/Conv2D;StatefulPartitionedCall/model/conv2d_3/Conv2D i1 [8, 1, 1, 4]
-27 31 -127 101 -50 24 -127 120
81 39 68 127 -104 -127 31 85
-120 -73 -127 -106 -72 34 127 -58
117 127 -34 -42 -52 -57 -82 -127
00000000: e51f 8165 ce18 8178 5127 447f 9881 1f55
00000010: 88b7 8196 b822 7fc6 757f ded6 ccc7 ae81

model/batch_normalization_5/FusedBatchNormV3;StatefulPartitionedCall/model/batch_normalization_5/FusedBatchNormV3;model/depthwise_conv2d_1/depthwise;StatefulPartitionedCall/model/depthwise_conv2d_1/depthwise;model/conv2d_12/Conv2D;StatefulPartitionedCall/model/conv2d_12/Conv2D i1 [1, 3, 3, 8]
-32 -5 -12 8 59 40 -8 127
54 67 55 59 82 114 59 -31
-19 -4 -3 -68 -18 -71 -7 -85
0 -89 -46 29 -109 48 -46 -25
63 127 92 117 -111 23 -127 -31
-4 100 -50 -127 -114 -61 -33 7
-127 -18 -79 -3 27 13 47 -95
-12 37 -117 -27 127 14 111 52
-88 9 -127 26 62 -127 26 100
00000000: e0fb f408 3b28 f87f 3643 373b 5272 3be1
00000010: edfc fdbc eeb9 f9ab 00a7 d21d 9330 d2e7
00000020: 3f7f 5c75 9117 81e1 fc64 ce81 8ec3 df07
00000030: 81ee b1fd 1b0d 2fa1 f425 8be5 7f0e 6f34
00000040: a809 811a 3e81 1a64

model/conv2d_4/Conv2D;StatefulPartitionedCall/model/conv2d_4/Conv2D i1 [4, 1, 1, 8]
10 75 69 39 -63 38 -127 -7
81 5 112 -127 41 118 20 -97
-95 109 -25 127 -89 -91 -97 64
41 -83 127 -87 59 53 117 -77
00000000: 0a4b 4527 c126 81f9 5105 7081 2976 149f
00000010: a16d e77f a7a5 9f40 29ad 7fa9 3b35 75b3

model/conv2d_5/Conv2D;StatefulPartitionedCall/model/conv2d_5/Conv2D i1 [24, 1, 1, 4]
127 -69 -47 -16 100 44 65 127
29 26 -31 -127 127 11 -57 -24
-12 29 -127 114 -68 -127 46 3
79 -127 -16 -5 119 -127 -71 46
29 -127 13 12 -117 -54 -38 -127
113 127 18 -71 -78 -127 20 -18
53 -33 127 46 82 -127 -13 -5
-33 -127 -19 10 127 60 62 -102
-95 127 -28 29 -9 -127 18 14
-127 95 104 -39 82 66 58 127
-71 -17 -56 127 127 54 87 100
22 -8 -26 -127 127 85 43 50
00000000: 7fbb d1f0 642c 417f 1d1a e181 7f0b c7e8
00000010: f41d 8172 bc81 2e03 4f81 f0fb 7781 b92e
00000020: 1d81 0d0c 8bca da81 717f 12b9 b281 14ee
00000030: 35df 7f2e 5281 f3fb df81 ed0a 7f3c 3e9a
00000040: a17f e41d f781 120e 815f 68d9 5242 3a7f
00000050: b9ef c87f 7f36 5764 16f8 e681 7f55 2b32

model/batch_normalization_8/FusedBatchNormV3;StatefulPartitionedCall/model/batch_normalization_8/FusedBatchNormV3;model/depthwise_conv2d_2/depthwise;StatefulPartitionedCall/model/depthwise_conv2d_2/depthwise;model/conv2d_20/Conv2D;StatefulPartitionedCall/model/conv2d_20/Conv2D i1 [1, 3, 3, 24]
-40 -1 67 77 47 -17 -42 -35
24 -38 -74 85 69 4 3 54
50 26 -73 -93 -22 54 39 -58
69 71 -16 -127 77 63 88 -45
-63 -48 -127 14 96 -4 38 102
6 -127 11 -112 -13 -83 80 -74
-31 -80 -78 46 40 -40 -43 -57
37 3 -44 -69 54 -7 68 53
-58 105 35 -75 8 -5 48 -30
-69 -19 127 -13 90 -51 53 -74
60 -98 -13 127 82 -51 22 64
69 -18 -127 -127 -86 95 60 -83
127 116 -25 35 127 127 -127 -105
-127 -127 1 -3 127 127 72 127
53 40 67 -123 -127 -127 127 -127
-57 -127 -103 -35 59 -77 42 -119
66 -33 19 -107 73 -36 127 77
-127 -25 69 -95 -53 -1 64 -80
-48 -11 105 -64 43 -46 -11 -47
39 -71 74 77 29 50 17 5
50 -7 -84 -66 -72 65 27 -47
102 77 -6 110 60 104 39 -127
-95 -103 116 -21 34 -126 34 25
22 87 4 -95 -117 -90 66 -71
-42 -91 -69 -25 24 -67 -3 -96
53 -33 69 -98 30 37 83 32
-74 -84 78 -38 -67 -5 26 -47
00000000: d8ff 434d 2fef d6dd 18da b655 4504 0336
00000010: 321a b7a3 ea36 27c6 4547 f081 4d3f 58d3
00000020: c1d0 810e 60fc 2666 0681 0b90 f3ad 50b6
00000030: e1b0 b22e 28d8 d5c7 2503 d4bb 36f9 4435
00000040: c669 23b5 08fb 30e2 bbed 7ff3 5acd 35b6
00000050: 3c9e f37f 52cd 1640 45ee 8181 aa5f 3cad
00000060: 7f74 e723 7f7f 8197 8181 01fd 7f7f 487f
00000070: 3528 4385 8181 7f81 c781 99dd 3bb3 2a89
00000080: 42df 1395 49dc 7f4d 81e7 45a1 cbff 40b0
00000090: d0f5 69c0 2bd2 f5d1 27b9 4a4d 1d32 1105
000000a0: 32f9 acbe b841 1bd1 664d fa6e 3c68 2781
000000b0: a199 74eb 2282 2219 1657 04a1 8ba6 42b9
000000c0: d6a5 bbe7 18bd fda0 35df 459e 1e25 5320
000000d0: b6ac 4eda bdfb 1ad1

model/conv2d_6/Conv2D;StatefulPartitionedCall/model/conv2d_6/Conv2D i1 [8, 1, 1, 24]
7 30 82 -10 -93 16 -25 26
5 86 -17 49 21 -25 36 83
5 -12 -14 -26 98 47 6 -127
-44 -47 -13 69 -89 -25 85 -24
-59 -5 -16 3 52 75 127 6
-41 70 -39 -13 8 -30 -71 -24
14 -10 36 -3 -38 28 -8 61
17 69 91 26 -41 -8 63 84
5 1 6 -2 -127 -3 18 48
-50 -22 -31 96 46 -53 127 -13
-24 -77 35 -62 13 119 -82 31
-20 108 -37 -114 -76 -41 70 -14
50 35 2 -51 49 42 -57 -47
50 10 39 -2 80 -49 -13 -49
17 -50 34 -73 -127 19 -49 -71
-124 -115 -69 -63 -3 -127 -64 -3
-117 -30 28 -71 25 -74 33 22
-100 -56 -67 -29 -4 -102 83 -13
-60 -52 -45 -4 46 -67 -3 109
-32 95 28 -54 -37 -13 -101 85
-31 -2 -45 53 -39 -48 -127 -18
-12 12 6 0 -4 -17 3 -6
-3 43 -59 -20 127 5 -111 -86
29 0 -14 -57 -1 -4 77 115
00000000: 071e 52f6 a310 e71a 0556 ef31 15e7 2453
00000010: 05f4 f2e6 622f 0681 d4d1 f345 a7e7 55e8
00000020: c5fb f003 344b 7f06 d746 d9f3 08e2 b9e8
00000030: 0ef6 24fd da1c f83d 1145 5b1a d7f8 3f54
00000040: 0501 06fe 81fd 1230 ceea e160 2ecb 7ff3
00000050: e8b3 23c2 0d77 ae1f ec6c db8e b4d7 46f2
00000060: 3223 02cd 312a c7d1 320a 27fe 50cf f3cf
00000070: 11ce 22b7 8113 cfb9 848d bbc1 fd81 c0fd
00000080: 8be2 1cb9 19b6 2116 9cc8 bde3 fc9a 53f3
00000090: c4cc d3fc 2ebd fd6d e05f 1cca dbf3 9b55
000000a0: e1fe d335 d9d0 81ee f40c 0600 fcef 03fa
000000b0: fd2b c5ec 7f05 91aa 1d00 f2c7 fffc 4d73

model/conv2d_7/Conv2D;StatefulPartitionedCall/model/conv2d_7/Conv2D i1 [32, 1, 1, 8]
70 19 -63 122 121 100 -127 -13
92 -24 31 127 64 -10 45 -105
-60 -43 26 34 -75 43 -127 -75
5 1 127 1 -43 -45 21 41
64 -114 70 -127 68 65 -51 -8
-84 11 -64 -127 -59 2 115 1
-60 -2 -23 -24 -6 106 127 10
-35 127 28 -89 118 -4 30 32
-113 127 10 -113 41 88 -87 -38
-127 103 77 -38 28 11 -115 -14
-95 -2 -22 -6 -2 100 127 -2
77 9 -112 106 127 55 -65 27
-109 37 -34 3 -11 127 61 -48
17 16 -81 -14 2 -31 44 -127
97 -71 7 28 -127 49 -95 15
54 90 12 -58 -127 74 34 75
57 41 -127 -67 -72 -102 -3 5
77 49 -24 42 127 20 31 15
-45 -59 -2 61 -61 73 -127 -46
-17 127 65 -118 31 -23 -94 9
20 127 29 -67 89 -12 -10 37
104 12 -103 79 127 -53 89 -34
-37 125 89 7 127 30 41 -27
-32 -15 33 -8 -23 -30 -20 -127
105 34 -55 39 127 -31 113 10
98 24 35 -98 12 -127 43 46
5 -127 53 66 -109 -63 26 -11
0 45 48 50 39 20 -127 -56
-24 127 -35 88 -99 41 57 -28
-71 27 -22 -18 15 127 110 -15
104 11 46 52 -36 -127 -122 43
-46 -12 61 127 58 94 1 -24
00000000: 4613 c17a 7964 81f3 5ce8 1f7f 40f6 2d97
00000010: c4d5 1a22 b52b 81b5 0501 7f01 d5d3 1529
00000020: 408e 4681 4441 cdf8 ac0b c081 c502 7301
00000030: c4fe e9e8 fa6a 7f0a dd7f 1ca7 76fc 1e20
00000040: 8f7f 0a8f 2958 a9da 8167 4dda 1c0b 8df2
00000050: a1fe eafa fe64 7ffe 4d09 906a 7f37 bf1b
00000060: 9325 de03 f57f 3dd0 1110 aff2 02e1 2c81
00000070: 61b9 071c 8131 a10f 365a 0cc6 814a 224b
00000080: 3929 81bd b89a fd05 4d31 e82a 7f14 1f0f
00000090: d3c5 fe3d c349 81d2 ef7f 418a 1fe9 a209
000000a0: 147f 1dbd 59f4 f625 680c 994f 7fcb 59de
000000b0: db7d 5907 7f1e 29e5 e0f1 21f8 e9e2 ec81
000000c0: 6922 c927 7fe1 710a 6218 239e 0c81 2b2e
000000d0: 0581 3542 93c1 1af5 002d 3032 2714 81c8
000000e0: e87f dd58 9d29 39e4 b91b eaee 0f7f 6ef1
000000f0: 680b 2e34 dc81 862b d2f4 3d7f 3a5e 01e8

model/batch_normalization_11/FusedBatchNormV3;StatefulPartitionedCall/model/batch_normalization_11/FusedBatchNormV3;model/depthwise_conv2d_3/depthwise;StatefulPartitionedCall/model/depthwise_conv2d_3/depthwise;model/depthwise_conv2d_4/depthwise;StatefulPartitionedCall/model/depthwise_conv2d_4/depthwise i1 [1, 3, 3, 32]
23 -119 -52 -7 10 -55 -19 -4
9 -30 48 -28 -3 -1 9 -5
-30 53 -18 14 -55 -27 -36 10
28 -79 74 60 11 -75 44 -1
94 -19 -110 -58 110 127 -12 -127
-83 127 15 -61 107 -64 57 -47
99 -32 28 54 -127 12 115 47
103 -23 -24 -6 105 -127 -127 -73
17 127 6 20 25 -19 50 100
33 -57 -13 -24 16 8 -18 -87
-21 -38 -36 20 -28 -6 -57 5
-127 -20 -60 -68 7 -65 63 97
18 25 -32 -29 18 62 14 0
77 20 108 -44 -72 -68 -84 -60
35 127 -43 -59 25 -20 -91 25
-7 -52 127 74 17 58 35 -85
16 -1 -12 -127 127 -79 -127 64
-127 -108 -127 127 -127 -127 -127 -83
127 -10 127 -127 -2 -127 127 127
-43 -9 -32 -7 127 22 -111 -48
68 -40 -20 -33 26 32 111 -81
66 63 -47 -35 -68 -60 -69 -23
60 -122 -51 -61 19 -22 -91 36
51 9 -105 -80 32 112 51 117
-69 53 57 33 11 7 -13 5
57 2 91 -18 50 16 62 -32
11 14 -17 37 55 47 -37 27
-25 -31 -36 -127 10 28 7 -28
-127 34 127 -79 120 -44 -44 57
-84 -21 -25 -5 66 -100 66 -127
-9 15 51 73 100 110 74 55
-60 127 -3 12 102 88 -50 -103
00000000: 1789 ccf9 0ac9 edfc 09e2 30e4 fdff 09fb
00000010: e235 ee0e c9e5 dc0a 1cb1 4a3c 0bb5 2cff
00000020: 5eed 92c6 6e7f f481 ad7f 0fc3 6bc0 39d1
00000030: 63e0 1c36 810c 732f 67e9 e8fa 6981 81b7
00000040: 117f 0614 19ed 3264 21c7 f3e8 1008 eea9
00000050: ebda dc14 e4fa c705 81ec c4bc 07bf 3f61
00000060: 1219 e0e3 123e 0e00 4d14 6cd4 b8bc acc4
00000070: 237f d5c5 19ec a519 f9cc 7f4a 113a 23ab
00000080: 10ff f481 7fb1 8140 8194 817f 8181 81ad
00000090: 7ff6 7f81 fe81 7f7f d5f7 e0f9 7f16 91d0
000000a0: 44d8 ecdf 1a20 6faf 423f d1dd bcc4 bbe9
000000b0: 3c86 cdc3 13ea a524 3309 97b0 2070 3375
000000c0: bb35 3921 0b07 f305 3902 5bee 3210 3ee0
000000d0: 0b0e ef25 372f db1b e7e1 dc81 0a1c 07e4
000000e0: 8122 7fb1 78d4 d439 aceb e7fb 429c 4281
000000f0: f70f 3349 646e 4a37 c47f fd0c 6658 ce99

model/conv2d_8/Conv2D;StatefulPartitionedCall/model/conv2d_8/Conv2D i1 [8, 1, 1, 32]
-23 36 -74 -63 -94 36 37 38
8 20 81 94 -39 -74 5 -127
-3 108 65 -28 -46 -10 47 -57
67 -38 44 -26 -72 -101 3 26
43 26 103 -52 -126 46 -1 86
-66 127 -13 17 -63 5 -14 -77
37 53 -26 -63 -20 17 -33 -7
44 6 23 8 -64 -76 64 -36
68 87 74 -31 -47 55 95 47
105 32 94 9 -15 -115 69 -127
25 79 49 78 33 106 64 -13
67 29 87 61 -40 -37 89 20
53 33 27 -93 -26 104 -3 109
-65 86 -3 71 -29 -59 -15 26
-22 -49 -65 -1 80 40 -43 -43
99 -127 -52 25 -89 -31 -81 -102
55 -25 25 -127 7 0 5 -38
13 -37 -6 106 71 -85 72 -9
-50 45 50 62 26 62 48 -91
-34 -31 -41 -56 -20 9 14 10
104 92 121 10 4 49 -67 73
-116 37 -68 -40 10 -32 -13 -31
84 38 -116 11 127 40 -88 61
65 1 65 94 36 87 -27 3
-125 -23 -30 94 32 -101 -96 -34
-30 17 -89 -36 1 127 38 3
40 72 -57 7 31 0 -25 34
-38 8 -3 32 59 59 77 59
8 60 -30 63 51 19 73 -3
47 -38 36 -40 -62 10 -92 51
83 82 15 -98 -54 -127 -37 92
36 89 99 39 72 -44 76 90
00000000: e924 b6c1 a224 2526 0814 515e d9b6 0581
00000010: fd6c 41e4 d2f6 2fc7 43da 2ce6 b89b 031a
00000020: 2b1a 67cc 822e ff56 be7f f311 c105 f2b3
00000030: 2535 e6c1 ec11 dff9 2c06 1708 c0b4 40dc
00000040: 4457 4ae1 d137 5f2f 6920 5e09 f18d 4581
00000050: 194f 314e 216a 40f3 431d 573d d8db 5914
00000060: 3521 1ba3 e668 fd6d bf56 fd47 e3c5 f11a
00000070: eacf bfff 5028 d5d5 6381 cc19 a7e1 af9a
00000080: 37e7 1981 0700 05da 0ddb fa6a 47ab 48f7
00000090: ce2d 323e 1a3e 30a5 dee1 d7c8 ec09 0e0a
000000a0: 685c 790a 0431 bd49 8c25 bcd8 0ae0 f3e1
000000b0: 5426 8c0b 7f28 a83d 4101 415e 2457 e503
000000c0: 83e9 e25e 209b a0de e211 a7dc 017f 2603
000000d0: 2848 c707 1f00 e722 da08 fd20 3b3b 4d3b
000000e0: 083c e23f 3313 49fd 2fda 24d8 c20a a433
000000f0: 5352 0f9e ca81 db5c 2459 6327 48d4 4c5a

model/conv2d_9/Conv2D;StatefulPartitionedCall/model/conv2d_9/Conv2D i1 [32, 1, 1, 8]
91 -42 -16 -127 -9 -7 -17 15
16 34 10 35 3 127 33 -33
-109 -86 11 -59 5 84 127 -40
-57 -56 -62 -127 -18 -86 -17 82
-90 -15 97 127 82 44 43 -112
-43 46 -127 23 46 -94 -25 -93
-89 -24 11 65 39 127 47 -43
60 -66 33 -54 85 -127 -97 45
-18 19 -29 -77 -17 127 104 17
127 78 19 -51 50 -88 103 -66
-127 -44 -38 32 -33 8 62 -17
125 84 25 64 50 -47 -127 18
0 75 19 -22 127 28 -61 -37
-34 13 28 -61 -50 -29 -127 -24
110 -77 -57 15 -105 127 -46 -10
68 127 -3 38 -71 13 -22 23
92 90 30 119 55 19 -127 42
34 110 8 80 101 -30 -127 -55
46 74 -30 -56 54 -87 127 -71
37 -63 -32 92 75 -59 127 22
21 -78 -41 -127 68 80 -5 4
-51 115 34 -87 15 47 -127 -22
113 62 21 -2 97 -49 127 -71
91 64 12 102 74 7 -127 -39
102 -3 30 -127 -19 -114 -25 52
102 -72 96 31 6 -127 -121 101
47 -29 60 86 -20 3 -127 -58
27 127 0 76 78 -26 -118 -48
97 -15 -90 61 127 52 -3 50
-26 -24 10 -127 -89 -94 102 -60
-9 -55 127 37 -31 51 -42 -94
-127 104 50 -23 110 52 8 55
00000000: 5bd6 f081 f7f9 ef0f 1022 0a23 037f 21df
00000010: 93aa 0bc5 0554 7fd8 c7c8 c281 eeaa ef52
00000020: a6f1 617f 522c 2b90 d52e 8117 2ea2 e7a3
00000030: a7e8 0b41 277f 2fd5 3cbe 21ca 5581 9f2d
00000040: ee13 e3b3 ef7f 6811 7f4e 13cd 32a8 67be
00000050: 81d4 da20 df08 3eef 7d54 1940 32d1 8112
00000060: 004b 13ea 7f1c c3db de0d 1cc3 cee3 81e8
00000070: 6eb3 c70f 977f d2f6 447f fd26 b90d ea17
00000080: 5c5a 1e77 3713 812a 226e 0850 65e2 81c9
00000090: 2e4a e2c8 36a9 7fb9 25c1 e05c 4bc5 7f16
000000a0: 15b2 d781 4450 fb04 cd73 22a9 0f2f 81ea
000000b0: 713e 15fe 61cf 7fb9 5b40 0c66 4a07 81d9
000000c0: 66fd 1e81 ed8e e734 66b8 601f 0681 8765
000000d0: 2fe3 3c56 ec03 81c6 1b7f 004c 4ee6 8ad0
000000e0: 61f1 a63d 7f34 fd32 e6e8 0a81 a7a2 66c4
000000f0: f7c9 7f25 e133 d6a2 8168 32e9 6e34 0837

model/batch_normalization_14/FusedBatchNormV3;StatefulPartitionedCall/model/batch_normalization_14/FusedBatchNormV3;model/depthwise_conv2d_4/depthwise;StatefulPartitionedCall/model/depthwise_conv2d_4/depthwise i1 [1, 3, 3, 32]
-15 37 24 -22 -19 18 -37 -26
20 57 15 2 -53 -75 29 31
108 17 -107 -28 -6 70 50 -68
-66 23 38 1 26 -2 -32 27
-84 81 50 -35 -78 41 -83 -46
51 127 -12 113 -105 -124 61 57
-15 -74 -127 -88 -7 -4 -41 -46
-110 30 67 78 86 -27 -127 65
-61 61 29 14 -67 29 -77 -30
49 79 -16 123 -75 -99 101 23
-112 17 12 -74 15 -69 -110 51
-96 46 33 -127 70 -25 -120 43
-19 37 40 -97 -49 59 -69 -72
113 50 -37 -16 -44 29 56 64
110 23 -79 -42 21 106 91 -127
-84 -67 74 -16 59 -52 -7 69
-127 127 127 -127 -123 127 -127 -127
127 111 -127 84 -124 61 106 127
12 -127 55 -127 81 27 24 7
-127 -52 127 108 127 -127 -94 127
-110 87 78 -41 -127 98 -121 -96
74 100 -104 127 -127 30 127 65
-127 78 71 -104 95 -127 -127 43
-92 21 63 -109 109 -91 -114 83
-32 4 31 -92 -23 52 -65 -45
92 2 -39 -44 -4 62 69 32
33 -34 15 -26 29 83 85 -33
-35 -127 43 -40 41 -51 22 64
-75 64 123 -116 -86 102 -119 -90
108 38 -101 -42 -49 127 80 75
21 -70 82 -52 122 49 91 81
-46 -127 68 60 80 -102 -5 91
00000000: f125 18ea ed12 dbe6 1439 0f02 cbb5 1d1f
00000010: 6c11 95e4 fa46 32bc be17 2601 1afe e01b
00000020: ac51 32dd b229 add2 337f f471 9784 3d39
00000030: f1b6 81a8 f9fc d7d2 921e 434e 56e5 8141
00000040: c33d 1d0e bd1d b3e2 314f f07b b59d 6517
00000050: 9011 0cb6 0fbb 9233 a02e 2181 46e7 882b
00000060: ed25 289f cf3b bbb8 7132 dbf0 d41d 3840
00000070: 6e17 b1d6 156a 5b81 acbd 4af0 3bcc f945
00000080: 817f 7f81 857f 8181 7f6f 8154 843d 6a7f
00000090: 0c81 3781 511b 1807 81cc 7f6c 7f81 a27f
000000a0: 9257 4ed7 8162 87a0 4a64 987f 811e 7f41
000000b0: 814e 4798 5f81 812b a415 3f93 6da5 8e53
000000c0: e004 1fa4 e934 bfd3 5c02 d9d4 fc3e 4520
000000d0: 21de 0fe6 1d53 55df dd81 2bd8 29cd 1640
000000e0: b540 7b8c aa66 89a6 6c26 9bd6 cf7f 504b
000000f0: 15ba 52cc 7a31 5b51 d281 443c 509a fb5b

model/conv2d_10/Conv2D;StatefulPartitionedCall/model/conv2d_10/Conv2D i1 [8, 1, 1, 32]
-53 -75 -10 23 -40 -12 -30 -118
127 67 75 42 -48 27 0 -125
-14 76 47 -61 50 -28 30 52
-52 -35 5 63 -52 0 -56 -70
5 9 11 -15 68 0 14 14
56 -30 -23 15 79 -42 2 10
-17 21 -38 21 32 -30 -17 -16
-3 56 -58 2 22 -127 18 -53
53 83 -70 74 23 -30 58 92
-43 77 25 -38 45 -29 86 55
-20 -13 15 -127 -11 -20 6 9
52 24 -67 -36 -40 25 -48 -61
46 57 14 8 -8 -56 -17 15
90 -58 -52 0 -13 46 22 59
-60 38 24 127 -67 -11 -29 64
50 -16 110 -7 92 0 -77 -50
77 -109 18 -42 70 126 43 -52
-42 -99 -19 101 71 -17 -18 10
23 57 -53 -96 -107 -53 -69 52
84 -20 105 69 -5 55 3 -127
-56 7 42 -89 -19 -4 -26 0
-56 -1 -24 -127 71 -15 65 -17
-33 -16 25 -25 17 -22 -45 20
-45 -60 60 -55 63 -29 -6 28
-27 32 26 -43 2 -127 -85 -25
34 -14 -85 73 52 3 -28 18
80 -10 -7 -62 35 35 15 -6
-14 -6 63 7 19 9 -8 6
-41 54 -38 26 -127 63 -46 -9
20 -47 -82 -14 4 -1 -37 -90
-28 -15 -30 -65 33 -55 -32 -25
61 54 -11 0 -19 0 -11 -1
00000000: cbb5 f617 d8f4 e28a 7f43 4b2a d01b 0083
00000010: f24c 2fc3 32e4 1e34 ccdd 053f cc00 c8ba
00000020: 0509 0bf1 4400 0e0e 38e2 e90f 4fd6 020a
00000030: ef15 da15 20e2 eff0 fd38 c602 1681 12cb
00000040: 3553 ba4a 17e2 3a5c d54d 19da 2de3 5637
00000050: ecf3 0f81 f5ec 0609 3418 bddc d819 d0c3
00000060: 2e39 0e08 f8c8 ef0f 5ac6 cc00 f32e 163b
00000070: c426 187f bdf5 e340 32f0 6ef9 5c00 b3ce
00000080: 4d93 12d6 467e 2bcc d69d ed65 47ef ee0a
00000090: 1739 cba0 95cb bb34 54ec 6945 fb37 0381
000000a0: c807 2aa7 edfc e600 c8ff e881 47f1 41ef
000000b0: dff0 19e7 11ea d314 d3c4 3cc9 3fe3 fa1c
000000c0: e520 1ad5 0281 abe7 22f2 ab49 3403 e412
000000d0: 50f6 f9c2 2323 0ffa f2fa 3f07 1309 f806
000000e0: d736 da1a 813f d2f7 14d1 aef2 04ff dba6
000000f0: e4f1 e2bf 21c9 e0e7 3d36 f500 ed00 f5ff

model/conv2d_11/Conv2D;StatefulPartitionedCall/model/conv2d_11/Conv2D i1 [48, 1, 1, 8]
85 -38 29 33 66 -127 41 -17
-18 11 127 -127 -73 -59 -73 -66
127 -16 124 77 4 19 125 50
-45 27 -127 -113 -12 47 34 -59
49 -80 52 94 3 127 1 -110
17 114 32 -41 80 -13 -21 -127
60 -22 -27 -56 37 15 -12 -127
-52 12 -127 -1 -80 -39 -92 -8
-39 74 123 48 -89 35 -92 127
1 -92 -99 37 -127 -34 -41 58
66 -28 -45 83 117 -127 31 22
-18 -49 29 -37 89 -66 -127 74
26 -4 -15 18 -33 59 13 127
-20 67 52 16 -37 -8 -114 -127
-127 -35 49 -62 -37 -43 -18 57
-34 18 -127 9 -111 -45 -93 -22
-127 82 -50 -82 -42 74 19 29
-27 -127 24 -48 -29 -68 -16 111
19 22 64 127 12 65 -22 27
-89 9 76 127 -124 54 -63 -67
-44 -59 -50 7 34 127 89 5
-32 -127 -7 53 -81 -41 16 58
127 -46 -49 -30 -68 52 -13 78
34 19 127 -79 6 -34 7 8
-62 -127 51 60 68 -58 -41 59
-27 -38 -34 127 22 60 19 -21
-77 -127 -34 -74 0 11 24 -64
-113 52 127 41 32 -20 -66 -53
96 21 -18 -38 75 -17 -61 -127
-91 73 -11 -122 66 88 -127 74
47 127 -17 21 96 79 31 74
56 75 -99 -77 -15 -36 -13 127
00000000: 55da 1d21 4281 29ef ee0b 7f81 b7c5 b7be
00000010: 7ff0 7c4d 0413 7d32 d31b 818f f42f 22c5
00000020: 31b0 345e 037f 0192 1172 20d7 50f3 eb81
00000030: 3cea e5c8 250f f481 cc0c 81ff b0d9 a4f8
00000040: d94a 7b30 a723 a47f 01a4 9d25 81de d73a
00000050: 42e4 d353 7581 1f16 eecf 1ddb 59be 814a
00000060: 1afc f112 df3b 0d7f ec43 3410 dbf8 8e81
00000070: 81dd 31c2 dbd5 ee39 de12 8109 91d3 a3ea
00000080: 8152 ceae d64a 131d e581 18d0 e3bc f06f
00000090: 1316 407f 0c41 ea1b a709 4c7f 8436 c1bd
000000a0: d4c5 ce07 227f 5905 e081 f935 afd7 103a
000000b0: 7fd2 cfe2 bc34 f34e 2213 7fb1 06de 0708
000000c0: c281 333c 44c6 d73b e5da de7f 163c 13eb
000000d0: b381 deb6 000b 18c0 8f34 7f29 20ec becb
000000e0: 6015 eeda 4bef c381 a549 f586 4258 814a
000000f0: 2f7f ef15 604f 1f4a 384b 9db3 f1dc f37f

model/batch_normalization_17/FusedBatchNormV3;StatefulPartitionedCall/model/batch_normalization_17/FusedBatchNormV3;model/depthwise_conv2d_5/depthwise;StatefulPartitionedCall/model/depthwise_conv2d_5/depthwise;model/conv2d_24/Conv2D;StatefulPartitionedCall/model/conv2d_24/Conv2D i1 [1, 3, 3, 48]
72 37 42 -23 -46 32 13 -42
36 -4 -81 97 -4 -63 -10 9
-16 11 -53 45 53 25 -8 24
-127 31 -21 -23 1 -37 -21 -41
-98 -35 0 -65 -1 36 25 42
-87 -68 -20 -30 -40 88 20 -40
127 -22 -116 67 -108 84 -127 -2
29 -63 -100 97 -22 -97 -29 -127
84 -16 55 -73 14 -2 113 -32
-15 -58 93 127 83 6 68 -39
16 98 3 -23 -32 12 91 125
-127 -83 18 -71 91 -127 11 -53
45 -39 -64 -39 44 21 -34 48
33 -13 -75 92 12 -80 27 -2
-27 16 -8 68 104 -23 9 -51
-115 16 -90 -11 -13 -35 -26 -60
38 42 29 86 35 26 1 40
-68 -61 -10 -12 -10 1 -2 25
-38 98 22 -40 -41 -8 78 -101
91 -43 124 -62 117 34 -29 -82
11 113 -127 -64 41 -103 49 -4
-69 127 -3 73 32 21 48 14
37 -21 -84 -17 28 -9 15 46
61 38 20 -8 -116 2 -42 -21
-108 26 -55 -48 -54 -15 -36 -33
127 -71 127 -127 -127 127 -81 97
-127 5 -33 71 -5 -38 127 127
-69 4 30 86 53 40 59 22
127 127 -58 -35 -127 -100 -127 127
-62 -10 127 127 8 9 -127 -127
-46 -127 -23 -23 127 -2 51 127
46 -30 55 -125 116 30 99 -58
00000000: 4825 2ae9 d220 0dd6 24fc af61 fcc1 f609
00000010: f00b cb2d 3519 f818 811f ebe9 01db ebd7
00000020: 9edd 00bf ff24 192a a9bc ece2 d858 14d8
00000030: 7fea 8c43 9454 81fe 1dc1 9c61 ea9f e381
00000040: 54f0 37b7 0efe 71e0 f1c6 5d7f 5306 44d9
00000050: 1062 03e9 e00c 5b7d 81ad 12b9 5b81 0bcb
00000060: 2dd9 c0d9 2c15 de30 21f3 b55c 0cb0 1bfe
00000070: e510 f844 68e9 09cd 8d10 a6f5 f3dd e6c4
00000080: 262a 1d56 231a 0128 bcc3 f6f4 f601 fe19
00000090: da62 16d8 d7f8 4e9b 5bd5 7cc2 7522 e3ae
000000a0: 0b71 81c0 2999 31fc bb7f fd49 2015 300e
000000b0: 25eb acef 1cf7 0f2e 3d26 14f8 8c02 d6eb
000000c0: 941a c9d0 caf1 dcdf 7fb9 7f81 817f af61
000000d0: 8105 df47 fbda 7f7f bb04 1e56 3528 3b16
000000e0: 7f7f c6dd 819c 817f c2f6 7f7f 0809 8181
000000f0: d281 e9e9 7ffe 337f 2ee2 3783 741e 63c6

model/conv2d_12/Conv2D;StatefulPartitionedCall/model/conv2d_12/Conv2D i1 [8, 1, 1, 48]
127 -20 -24 88 0 -121 -85 -95
-110 -80 93 79 81 -42 -11 -15
41 -97 -39 0 8 -74 -117 34
104 -39 -29 32 -50 -85 -15 -23
-97 -37 -92 -55 -48 43 -11 -28
-70 20 -93 -67 96 -19 -81 -14
-61 23 68 57 -11 95 50 16
116 -78 -16 -30 40 2 113 -36
-23 93 23 23 42 46 85 -85
-54 46 42 100 81 127 -75 -48
37 -3 -9 50 7 -124 -14 -96
-68 70 33 71 -29 78 72 95
-17 3 -12 -60 -71 -11 -34 27
73 -99 -46 -1 -48 -79 -81 83
40 1 22 -93 36 6 -59 22
127 -30 45 -102 33 13 37 36
-44 -51 -11 4 -61 -47 103 -75
-72 59 -23 -42 -57 45 -31 -35
37 -110 -1 -11 -127 20 -50 -84
-30 3 28 79 44 99 -6 100
81 4 -122 49 -102 -48 -68 -41
-25 -54 45 -5 64 12 18 -35
-19 -91 -71 -17 -86 35 65 55
-6 -16 -15 29 32 113 57 -74
21 -22 -108 -94 15 -55 121 -72
-41 -102 22 20 16 -50 41 11
61 -31 2 -16 -50 -21 -14 -53
-36 79 8 6 30 -23 60 -127
85 -14 -76 -43 -38 -55 -117 -94
77 18 -38 -66 -26 27 -22 -17
-127 -62 30 2 15 -42 -10 -27
-73 13 -53 9 -11 11 -30 -66
00000000: 7fec e858 0087 aba1 92b0 5d4f 51d6 f5f1
00000010: 299f d900 08b6 8b22 68d9 e320 ceab f1e9
00000020: 9fdb a4c9 d02b f5e4 ba14 a3bd 60ed aff2
00000030: c317 4439 f55f 3210 74b2 f0e2 2802 71dc
00000040: e95d 1717 2a2e 55ab ca2e 2a64 517f b5d0
00000050: 25fd f732 0784 f2a0 bc46 2147 e34e 485f
00000060: ef03 f4c4 b9f5 de1b 499d d2ff d0b1 af53
00000070: 2801 16a3 2406 c516 7fe2 2d9a 210d 2524
00000080: d4cd f504 c3d1 67b5 b83b e9d6 c72d e1dd
00000090: 2592 fff5 8114 ceac e203 1c4f 2c63 fa64
000000a0: 5104 8631 9ad0 bcd7 e7ca 2dfb 400c 12dd
000000b0: eda5 b9ef aa23 4137 faf0 f11d 2071 39b6
000000c0: 15ea 94a2 0fc9 79b8 d79a 1614 10ce 290b
000000d0: 3de1 02f0 ceeb f2cb dc4f 0806 1ee9 3c81
000000e0: 55f2 b4d5 dac9 8ba2 4d12 dabe e61b eaef
000000f0: 81c2 1e02 0fd6 f6e5 b70d cb09 f50b e2be

model/conv2d_13/Conv2D;StatefulPartitionedCall/model/conv2d_13/Conv2D i1 [48, 1, 1, 8]
43 -110 56 74 30 -14 -27 -127
70 -96 127 -57 -59 7 51 25
62 -61 36 9 -65 10 24 127
50 39 -41 31 17 -60 18 127
41 53 -39 24 -69 96 -38 127
73 127 -89 -63 23 -19 73 -24
75 -127 46 -3 -32 -17 -66 -59
4 -3 37 -16 127 -15 28 27
-74 -69 9 8 -46 -16 36 127
11 35 81 -14 -84 -127 -94 83
23 122 13 -8 -24 -31 13 -127
24 -1 59 52 28 -127 32 -70
-17 -101 -15 37 32 -65 111 -127
29 1 127 16 109 99 53 -4
13 -22 37 -127 -35 50 -95 21
-1 -54 58 24 -126 23 115 -127
-9 53 80 79 -88 -103 127 -49
-75 -117 3 -75 25 59 127 19
8 -44 -55 -28 2 -17 -37 -127
127 -72 -6 61 -48 36 -17 -4
30 89 -67 127 14 49 26 50
73 -127 92 -83 -10 -92 -49 -27
36 124 -13 6 68 -127 55 71
127 56 45 -105 0 -32 47 -35
-63 -60 -127 1 -41 -25 -47 23
6 -127 -20 42 -22 -28 10 55
94 -72 57 96 127 79 -72 11
-12 127 -32 -40 -61 11 -12 71
118 -13 -127 -9 6 39 59 -103
43 49 -75 -127 46 24 -63 -83
-62 -112 12 -60 23 9 5 127
-26 -101 -62 -21 126 -10 -127 -15
00000000: 2b92 384a 1ef2 e581 46a0 7fc7 c507 3319
00000010: 3ec3 2409 bf0a 187f 3227 d71f 11c4 127f
00000020: 2935 d918 bb60 da7f 497f a7c1 17ed 49e8
00000030: 4b81 2efd e0ef bec5 04fd 25f0 7ff1 1c1b
00000040: b6bb 0908 d2f0 247f 0b23 51f2 ac81 a253
00000050: 177a 0df8 e8e1 0d81 18ff 3b34 1c81 20ba
00000060: ef9b f125 20bf 6f81 1d01 7f10 6d63 35fc
00000070: 0dea 2581 dd32 a115 ffca 3a18 8217 7381
00000080: f735 504f a899 7fcf b58b 03b5 193b 7f13
00000090: 08d4 c9e4 02ef db81 7fb8 fa3d d024 effc
000000a0: 1e59 bd7f 0e31 1a32 4981 5cad f6a4 cfe5
000000b0: 247c f306 4481 3747 7f38 2d97 00e0 2fdd
000000c0: c1c4 8101 d7e7 d117 0681 ec2a eae4 0a37
000000d0: 5eb8 3960 7f4f b80b f47f e0d8 c30b f447
000000e0: 76f3 81f7 0627 3b99 2b31 b581 2e18 c1ad
000000f0: c290 0cc4 1709 057f e69b c2eb 7ef6 81f1

model/batch_normalization_20/FusedBatchNormV3;StatefulPartitionedCall/model/batch_normalization_20/FusedBatchNormV3;model/depthwise_conv2d_6/depthwise;StatefulPartitionedCall/model/depthwise_conv2d_6/depthwise;model/conv2d_24/Conv2D;StatefulPartitionedCall/model/conv2d_24/Conv2D i1 [1, 3, 3, 48]
-2 43 -6 -32 32 -43 -6 7
-89 -13 14 30 -32 48 -10 -41
6 -31 -2 -4 0 -26 -29 -2
-9 22 -17 -101 14 3 -26 -15
-3 -51 7 25 9 33 -4 -82
30 -13 -71 -8 5 19 25 -20
-105 115 -15 -2 -18 127 127 -68
-36 -21 -127 -95 -54 -6 -9 -70
-21 -17 49 -10 103 -99 -13 -110
75 -126 11 120 57 55 29 -20
-49 -69 -59 18 2 37 9 58
-3 -32 102 53 63 -127 -47 29
56 2 26 -44 22 -11 14 -10
-108 35 -7 6 -127 -60 -2 -58
-31 -31 19 -10 14 -32 -10 -71
-3 -10 -16 59 53 22 -37 -32
-16 -96 62 28 23 31 -30 -39
-48 -5 115 -5 -7 15 23 -8
-25 112 -127 50 -15 17 -13 -6
50 -1 -4 -56 3 97 -7 -7
19 15 -32 -55 113 4 3 41
-59 -18 1 127 -52 -24 -15 -7
-5 -67 -28 -17 -31 -22 14 -39
105 -1 -109 -33 57 -90 42 5
-20 18 21 127 -24 48 22 -30
-127 -13 48 -127 119 15 15 -127
127 13 80 -127 80 127 34 119
127 94 127 -75 -118 -1 127 127
-59 96 -99 -127 127 83 -127 -76
36 127 66 113 53 -3 -127 -118
-22 -127 126 81 33 0 -7 -23
-27 127 50 -122 28 -127 -15 -77
00000000: fe2b fae0 20d5 fa07 a7f3 0e1e e030 f6d7
00000010: 06e1 fefc 00e6 e3fe f716 ef9b 0e03 e6f1
00000020: fdcd 0719 0921 fcae 1ef3 b9f8 0513 19ec
00000030: 9773 f1fe ee7f 7fbc dceb 81a1 cafa f7ba
00000040: ebef 31f6 679d f392 4b82 0b78 3937 1dec
00000050: cfbb c512 0225 093a fde0 6635 3f81 d11d
00000060: 3802 1ad4 16f5 0ef6 9423 f906 81c4 fec6
00000070: e1e1 13f6 0ee0 f6b9 fdf6 f03b 3516 dbe0
00000080: f0a0 3e1c 171f e2d9 d0fb 73fb f90f 17f8
00000090: e770 8132 f111 f3fa 32ff fcc8 0361 f9f9
000000a0: 130f e0c9 7104 0329 c5ee 017f cce8 f1f9
000000b0: fbbd e4ef e1ea 0ed9 69ff 93df 39a6 2a05
000000c0: ec12 157f e830 16e2 81f3 3081 770f 0f81
000000d0: 7f0d 5081 507f 2277 7f5e 7fb5 8aff 7f7f
000000e0: c560 9d81 7f53 81b4 247f 4271 35fd 818a
000000f0: ea81 7e51 2100 f9e9 e57f 3286 1c81 f1b3

model/conv2d_14/Conv2D;StatefulPartitionedCall/model/conv2d_14/Conv2D i1 [16, 1, 1, 48]
-20 -48 -65 -18 3 72 117 -49
4 -62 127 -63 31 -76 -14 -1
-17 45 -27 4 -57 46 -80 -41
7 -40 21 -36 74 -110 8 -117
34 78 -3 48 21 49 -26 103
-61 68 -74 -55 -2 65 -45 -96
-8 27 -21 2 3 109 127 38
58 20 2 7 -58 -1 66 -38
70 -4 33 -51 26 109 10 48
-30 -31 122 19 49 -8 43 19
32 -41 -53 -97 72 68 -86 -8
14 69 38 5 -27 26 -42 -12
-127 20 48 -60 3 -5 72 -43
20 99 42 25 -83 6 60 -33
-31 -47 4 -35 -113 -64 -78 91
76 -45 -30 -112 -30 49 -31 66
-58 33 -79 40 5 32 -89 -2
-20 -60 -49 34 -54 12 -83 -88
-10 67 88 56 -16 92 -5 -32
9 26 -50 -127 92 -7 -3 74
85 44 126 9 15 31 53 10
78 30 -78 -65 26 -76 26 107
-92 67 -52 -70 72 -87 92 94
60 -41 4 57 -11 19 -17 23
39 73 48 74 -20 28 86 -17
-42 35 -44 15 -27 36 18 17
51 73 -1 25 -100 14 -26 26
17 70 -127 4 -41 77 1 -87
95 -45 116 -32 -29 60 -53 -39
82 60 4 77 29 -68 32 -48
-20 -3 21 15 17 61 13 -127
-24 10 -30 -14 -27 27 -71 26
00000000: ecd0 bfee 0348 75cf 04c2 7fc1 1fb4 f2ff
00000010: ef2d e504 c72e b0d7 07d8 15dc 4a92 088b
00000020: 224e fd30 1531 e667 c344 b6c9 fe41 d3a0
00000030: f81b eb02 036d 7f26 3a14 0207 c6ff 42da
00000040: 46fc 21cd 1a6d 0a30 e2e1 7a13 31f8 2b13
00000050: 20d7 cb9f 4844 aaf8 0e45 2605 e51a d6f4
00000060: 8114 30c4 03fb 48d5 1463 2a19 ad06 3cdf
00000070: e1d1 04dd 8fc0 b25b 4cd3 e290 e231 e142
00000080: c621 b128 0520 a7fe ecc4 cf22 ca0c ada8
00000090: f643 5838 f05c fbe0 091a ce81 5cf9 fd4a
000000a0: 552c 7e09 0f1f 350a 4e1e b2bf 1ab4 1a6b
000000b0: a443 ccba 48a9 5c5e 3cd7 0439 f513 ef17
000000c0: 2749 304a ec1c 56ef d623 d40f e524 1211
000000d0: 3349 ff19 9c0e e61a 1146 8104 d74d 01a9
000000e0: 5fd3 74e0 e33c cbd9 523c 044d 1dbc 20d0
000000f0: ecfd 150f 113d 0d81 e80a e2f2 e51b b91a

model/conv2d_15/Conv2D;StatefulPartitionedCall/model/conv2d_15/Conv2D i1 [96, 1, 1, 16]
92 28 49 -42 -82 -124 29 52
10 49 127 48 -8 -9 -85 18
-16 44 -103 -48 -59 -46 -29 17
-33 -54 127 -20 -69 -44 29 22
58 -34 34 13 -101 -28 67 -31
-67 -109 -1 127 -32 19 -22 70
-13 -12 38 121 -45 14 -20 -38
10 24 -40 -79 -127 -61 110 43
21 -55 -19 -15 -127 -99 21 -13
1 15 -17 42 15 -25 10 57
-56 64 74 -18 -3 48 57 -56
-75 95 -11 81 -42 127 -47 -30
76 39 -19 91 -1 84 -15 12
-127 -16 48 -22 47 20 5 53
55 -6 -70 -8 -7 69 0 -58
127 80 19 -26 10 -17 -55 -52
-23 33 -37 78 -127 6 -52 27
56 -76 -124 0 -87 -12 -12 65
-16 -14 19 48 -127 -106 45 28
43 67 -20 30 -57 49 16 4
52 -14 4 11 -88 -113 116 -23
83 -88 -17 14 -127 -44 5 -88
24 -25 25 -28 52 50 22 -61
-48 -7 -22 12 48 -13 52 127
31 -95 -27 -44 55 -44 16 32
-15 18 -27 -118 -12 -51 27 127
16 -37 -25 127 79 -68 -12 79
46 17 -16 -24 -68 -111 108 -61
16 36 -18 -33 -70 -18 61 -78
11 -53 -122 127 94 77 55 70
127 10 7 1 -39 -124 -40 123
-59 77 -87 26 10 26 -27 -47
00000000: 5c1c 31d6 ae84 1d34 0a31 7f30 f8f7 ab12
00000010: f02c 99d0 c5d2 e311 dfca 7fec bbd4 1d16
00000020: 3ade 220d 9be4 43e1 bd93 ff7f e013 ea46
00000030: f3f4 2679 d30e ecda 0a18 d8b1 81c3 6e2b
00000040: 15c9 edf1 819d 15f3 010f ef2a 0fe7 0a39
00000050: c840 4aee fd30 39c8 b55f f551 d67f d1e2
00000060: 4c27 ed5b ff54 f10c 81f0 30ea 2f14 0535
00000070: 37fa baf8 f945 00c6 7f50 13e6 0aef c9cc
00000080: e921 db4e 8106 cc1b 38b4 8400 a9f4 f441
00000090: f0f2 1330 8196 2d1c 2b43 ec1e c731 1004
000000a0: 34f2 040b a88f 74e9 53a8 ef0e 81d4 05a8
000000b0: 18e7 19e4 3432 16c3 d0f9 ea0c 30f3 347f
000000c0: 1fa1 e5d4 37d4 1020 f112 e58a f4cd 1b7f
000000d0: 10db e77f 4fbc f44f 2e11 f0e8 bc91 6cc3
000000e0: 1024 eedf baee 3db2 0bcb 867f 5e4d 3746
000000f0: 7f0a 0701 d984 d87b c54d a91a 0a1a e5d1

model/batch_normalization_23/FusedBatchNormV3;StatefulPartitionedCall/model/batch_normalization_23/FusedBatchNormV3;model/depthwise_conv2d_7/depthwise;StatefulPartitionedCall/model/depthwise_conv2d_7/depthwise;model/conv2d_26/Conv2D;StatefulPartitionedCall/model/conv2d_26/Conv2D i1 [1, 3, 3, 96]
-39 -56 98 15 -11 -82 -45 18
-12 -75 -60 11 127 -8 50 -19
9 23 0 83 -127 -42 -44 13
-19 -33 57 2 -20 33 30 1
93 44 2 43 -41 31 64 -14
28 56 -28 -52 4 127 21 -29
1 15 -38 12 -26 6 -29 -6
-127 -24 -1 20 127 16 83 -34
9 66 51 -51 -88 -16 -4 -78
9 52 -10 -61 15 27 62 5
-57 59 -23 -86 -72 -127 -69 76
10 -29 51 77 35 -127 -82 -19
127 127 -116 -2 7 119 3 75
-57 -13 9 -54 26 -20 31 -94
125 6 36 -127 78 -15 66 -112
-110 -124 72 -57 11 10 70 -12
-51 -103 -34 127 -81 127 -127 63
45 -3 -78 -81 18 -106 -65 -92
-88 127 -37 20 11 127 2 -33
-29 78 127 -121 -9 -74 127 -35
-127 127 -127 -41 -127 -67 -1 127
127 127 51 -21 -127 71 -75 7
111 15 -60 -62 -57 71 -44 127
127 21 127 40 -17 -99 -53 127
-89 -90 -19 0 -35 -127 -14 48
-44 -71 -12 40 -42 30 40 127
41 13 29 12 -127 29 -71 -11
-26 -42 -112 -1 30 34 41 11
-5 -58 -4 59 -7 58 36 42
-48 -18 127 -42 0 -84 30 -23
19 55 8 -11 -58 69 38 85
47 -6 40 51 -98 25 79 -29
00000000: d9c8 620f f5ae d312 f4b5 c40b 7ff8 32ed
00000010: 0917 0053 81d6 d40d eddf 3902 ec21 1e01
00000020: 5d2c 022b d71f 40f2 1c38 e4cc 047f 15e3
00000030: 010f da0c e606 e3fa 81e8 ff14 7f10 53de
00000040: 0942 33cd a8f0 fcb2 0934 f6c3 0f1b 3e05
00000050: c73b e9aa b881 bb4c 0ae3 334d 2381 aeed
00000060: 7f7f 8cfe 0777 034b c7f3 09ca 1aec 1fa2
00000070: 7d06 2481 4ef1 4290 9284 48c7 0b0a 46f4
00000080: cd99 de7f af7f 813f 2dfd b2af 1296 bfa4
00000090: a87f db14 0b7f 02df e34e 7f87 f7b6 7fdd
000000a0: 817f 81d7 81bd ff7f 7f7f 33eb 8147 b507
000000b0: 6f0f c4c2 c747 d47f 7f15 7f28 ef9d cb7f
000000c0: a7a6 ed00 dd81 f230 d4b9 f428 d61e 287f
000000d0: 290d 1d0c 811d b9f5 e6d6 90ff 1e22 290b
000000e0: fbc6 fc3b f93a 242a d0ee 7fd6 00ac 1ee9
000000f0: 1337 08f5 c645 2655 2ffa 2833 9e19 4fe3

model/conv2d_16/Conv2D;StatefulPartitionedCall/model/conv2d_16/Conv2D i1 [16, 1, 1, 96]
-8 20 -54 -45 -48 44 -28 8
-24 -29 -9 49 33 15 -35 -10
-55 -80 -38 38 23 -2 8 -44
10 -43 -64 58 -45 -11 13 41
-68 1 12 -53 5 -39 -57 -36
-31 -61 40 72 -68 -20 19 27
-52 61 -70 -25 127 42 -111 -23
-62 49 -53 0 -10 40 -45 -78
63 59 -51 -17 125 -7 1 65
26 -14 -30 -30 -37 -39 -32 -28
-88 3 -4 47 88 21 -86 25
61 5 30 -85 -60 6 10 51
72 -9 27 -70 11 80 47 -55
-52 -35 61 -32 -29 56 54 56
-23 -30 42 30 38 15 2 46
36 41 -4 49 -78 -12 -21 75
-26 -9 -102 36 75 -46 -24 0
60 -2 54 -23 -30 61 -66 5
37 -12 -11 -39 37 -36 38 -127
-37 -22 -31 23 -47 -51 -22 62
41 106 -46 44 28 -77 -22 88
92 -80 -19 7 -64 48 -104 -64
-80 9 -4 58 33 6 -6 -73
-21 -71 -31 -41 -25 84 50 21
43 -17 -9 -14 31 43 -4 5
-47 71 6 45 17 -31 -39 58
-20 17 -36 54 74 41 -40 27
66 -4 34 -1 7 77 -59 -3
49 -77 99 70 -85 15 -57 -41
-35 -120 47 -1 -59 57 62 -57
-38 87 -54 13 11 1 -58 -12
-35 2 -100 22 45 90 -65 -31
00000000: f814 cad3 d02c e408 e8e3 f731 210f ddf6
00000010: c9b0 da26 17fe 08d4 0ad5 c03a d3f5 0d29
00000020: bc01 0ccb 05d9 c7dc e1c3 2848 bcec 131b
00000030: cc3d bae7 7f2a 91e9 c231 cb00 f628 d3b2
00000040: 3f3b cdef 7df9 0141 1af2 e2e2 dbd9 e0e4
00000050: a803 fc2f 5815 aa19 3d05 1eab c406 0a33
00000060: 48f7 1bba 0b50 2fc9 ccdd 3de0 e338 3638
00000070: e9e2 2a1e 260f 022e 2429 fc31 b2f4 eb4b
00000080: e6f7 9a24 4bd2 e800 3cfe 36e9 e23d be05
00000090: 25f4 f5d9 25dc 2681 dbea e117 d1cd ea3e
000000a0: 296a d22c 1cb3 ea58 5cb0 ed07 c030 98c0
000000b0: b009 fc3a 2106 fab7 ebb9 e1d7 e754 3215
000000c0: 2bef f7f2 1f2b fc05 d147 062d 11e1 d93a
000000d0: ec11 dc36 4a29 d81b 42fc 22ff 074d c5fd
000000e0: 31b3 6346 ab0f c7d7 dd88 2fff c539 3ec7
000000f0: da57 ca0d 0b01 c6f4 dd02 9c16 2d5a bfe1

model/conv2d_17/Conv2D;StatefulPartitionedCall/model/conv2d_17/Conv2D i1 [96, 1, 1, 16]
69 20 62 21 46 7 -17 -17
-72 -19 -21 11 -67 -61 32 127
54 54 86 -81 -28 -127 29 60
72 -51 -7 -15 -28 71 -76 -63
-40 1 -54 14 27 -59 -57 -83
29 83 63 -15 127 50 -54 87
-17 4 16 -85 1 -105 -2 -10
-50 -6 54 29 -49 -56 127 42
-48 47 -76 13 -62 -8 -72 89
-41 21 64 -52 -46 -21 -4 -127
16 -33 23 6 -5 -20 65 -2
-30 50 -107 -41 -127 69 124 1
60 -26 75 43 -77 -57 0 -26
-127 -88 13 29 -10 -6 12 73
93 -39 -19 9 -25 -17 -60 -62
-3 -12 -88 -47 -12 127 84 -113
63 -27 83 -24 -18 60 -89 72
-17 97 17 -117 -10 127 -65 -26
66 56 99 10 -13 -14 13 -13
8 25 -55 -127 28 39 -36 -28
69 32 50 4 -1 27 -53 96
127 87 39 87 -80 51 31 -54
30 -29 61 -19 13 -3 -62 -87
27 77 18 8 -14 -74 -3 -127
14 48 38 114 34 -12 56 102
-4 -6 64 72 -127 -45 45 -58
-108 -127 0 -45 -55 10 1 60
9 -41 25 -37 2 -31 48 79
43 11 32 51 -25 84 -18 59
-50 23 -88 -19 -73 -127 35 -2
10 52 -16 -1 -40 -4 -18 -39
-13 30 -13 -23 -30 127 1 49
00000000: 4514 3e15 2e07 efef b8ed eb0b bdc3 207f
00000010: 3636 56af e481 1d3c 48cd f9f1 e447 b4c1
00000020: d801 ca0e 1bc5 c7ad 1d53 3ff1 7f32 ca57
00000030: ef04 10ab 0197 fef6 cefa 361d cfc8 7f2a
00000040: d02f b40d c2f8 b859 d715 40cc d2eb fc81
00000050: 10df 1706 fbec 41fe e232 95d7 8145 7c01
00000060: 3ce6 4b2b b3c7 00e6 81a8 0d1d f6fa 0c49
00000070: 5dd9 ed09 e7ef c4c2 fdf4 a8d1 f47f 548f
00000080: 3fe5 53e8 ee3c a748 ef61 118b f67f bfe6
00000090: 4238 630a f3f2 0df3 0819 c981 1c27 dce4
000000a0: 4520 3204 ff1b cb60 7f57 2757 b033 1fca
000000b0: 1ee3 3ded 0dfd c2a9 1b4d 1208 f2b6 fd81
000000c0: 0e30 2672 22f4 3866 fcfa 4048 81d3 2dc6
000000d0: 9481 00d3 c90a 013c 09d7 19db 02e1 304f
000000e0: 2b0b 2033 e754 ee3b ce17 a8ed b781 23fe
000000f0: 0a34 f0ff d8fc eed9 f31e f3e9 e27f 0131

model/batch_normalization_26/FusedBatchNormV3;StatefulPartitionedCall/model/batch_normalization_26/FusedBatchNormV3;model/depthwise_conv2d_8/depthwise;StatefulPartitionedCall/model/depthwise_conv2d_8/depthwise;model/conv2d_26/Conv2D;StatefulPartitionedCall/model/conv2d_26/Conv2D i1 [1, 3, 3, 96]
36 1 28 15 62 -15 -1 -62
30 -20 -30 38 77 -60 -30 -11
-99 -15 67 58 3 -31 6 -36
3 82 -39 28 40 9 -15 21
-6 -32 67 9 24 -28 27 -26
-11 17 48 6 53 0 19 62
18 16 -59 7 9 46 -5 -35
43 -20 -3 -9 1 61 32 54
-58 44 -27 25 33 0 127 23
-9 -5 -29 57 -17 -19 5 -60
5 33 38 -6 -20 -48 60 11
-78 -5 17 39 -24 58 88 10
31 100 90 91 127 47 3 -66
-42 -72 -59 50 54 -83 27 -43
-127 -81 -31 65 87 -53 73 -54
-57 47 -99 -72 127 -11 -54 56
18 -81 63 43 78 -26 -91 -12
-22 92 82 -5 78 83 43 117
127 43 78 35 20 63 -40 -127
100 -42 -12 -32 -75 107 36 127
-98 7 -91 76 127 -9 47 -40
-28 -14 -127 40 -71 18 -1 -92
9 45 127 28 61 -96 104 -78
-119 2 127 127 -46 123 90 77
-90 127 66 127 99 34 6 -127
78 -56 -62 -2 11 -30 0 -70
-127 -27 1 51 -44 -43 58 -57
89 -61 -88 52 93 9 -54 47
23 -67 -127 42 64 -10 69 -13
-28 80 -33 3 24 22 57 121
126 29 -1 11 -13 17 -17 -116
82 -55 -12 -26 -42 3 30 70
00000000: 2401 1c0f 3ef1 ffc2 1eec e226 4dc4 e2f5
00000010: 9df1 433a 03e1 06dc 0352 d91c 2809 f115
00000020: fae0 4309 18e4 1be6 f511 3006 3500 133e
00000030: 1210 c507 092e fbdd 2bec fdf7 013d 2036
00000040: c62c e519 2100 7f17 f7fb e339 efed 05c4
00000050: 0521 26fa ecd0 3c0b b2fb 1127 e83a 580a
00000060: 1f64 5a5b 7f2f 03be d6b8 c532 36ad 1bd5
00000070: 81af e141 57cb 49ca c72f 9db8 7ff5 ca38
00000080: 12af 3f2b 4ee6 a5f4 ea5c 52fb 4e53 2b75
00000090: 7f2b 4e23 143f d881 64d6 f4e0 b56b 247f
000000a0: 9e07 a54c 7ff7 2fd8 e4f2 8128 b912 ffa4
000000b0: 092d 7f1c 3da0 68b2 8902 7f7f d27b 5a4d
000000c0: a67f 427f 6322 0681 4ec8 c2fe 0be2 00ba
000000d0: 81e5 0133 d4d5 3ac7 59c3 a834 5d09 ca2f
000000e0: 17bd 812a 40f6 45f3 e450 df03 1816 3979
000000f0: 7e1d ff0b f311 ef8c 52c9 f4e6 d603 1e46

model/conv2d_18/Conv2D;StatefulPartitionedCall/model/conv2d_18/Conv2D i1 [24, 1, 1, 96]
28 11 46 -5 11 -13 42 -52
-25 -58 50 31 -58 -54 -12 -9
-113 -37 53 -34 -10 30 -47 5
26 0 33 -24 -9 -10 22 -29
33 -6 11 28 16 20 38 -17
-2 51 20 -20 -52 46 -32 -23
4 -127 0 6 28 24 18 -69
30 1 -62 27 2 26 -6 -28
35 26 -10 60 13 -3 43 37
5 -12 -24 -3 70 -13 26 29
-27 -42 27 -4 4 9 -61 7
-12 28 61 -11 64 -3 -38 46
-51 -18 -5 -27 -12 -5 12 -2
-2 -44 31 37 -49 60 -12 -6
-98 2 -28 -66 22 -5 4 -18
7 -29 28 20 -24 51 -40 -41
-29 -5 -23 64 47 -125 -88 -2
-66 -127 27 16 -54 -24 41 -3
-74 40 -50 38 -27 -41 -36 -61
12 0 29 -26 72 10 19 -60
92 -7 -21 33 -4 -6 -16 3
8 3 -37 51 78 4 17 30
46 -12 22 -35 15 -20 -33 -52
74 31 43 11 -42 -60 -75 -10
17 -5 127 -30 0 -47 36 -7
64 7 104 18 -7 -67 13 -9
10 5 -10 -6 25 -20 -26 -40
4 -1 -25 -12 -25 -1 -31 -25
-8 -1 19 -38 -81 33 -21 -6
20 47 46 22 -33 -7 17 -43
40 86 10 -34 11 -41 -18 -27
82 -11 12 54 17 21 40 -6
00000000: 1c0b 2efb 0bf3 2acc e7c6 321f c6ca f4f7
00000010: 8fdb 35de f61e d105 1a00 21e8 f7f6 16e3
00000020: 21fa 0b1c 1014 26ef fe33 14ec cc2e e0e9
00000030: 0481 0006 1c18 12bb 1e01 c21b 021a fae4
00000040: 231a f63c 0dfd 2b25 05f4 e8fd 46f3 1a1d
00000050: e5d6 1bfc 0409 c307 f41c 3df5 40fd da2e
00000060: cdee fbe5 f4fb 0cfe fed4 1f25 cf3c f4fa
00000070: 9e02 e4be 16fb 04ee 07e3 1c14 e833 d8d7
00000080: e3fb e940 2f83 a8fe be81 1b10 cae8 29fd
00000090: b628 ce26 e5d7 dcc3 0c00 1de6 480a 13c4
000000a0: 5cf9 eb21 fcfa f003 0803 db33 4e04 111e
000000b0: 2ef4 16dd 0fec dfcc 4a1f 2b0b d6c4 b5f6
000000c0: 11fb 7fe2 00d1 24f9 4007 6812 f9bd 0df7
000000d0: 0a05 f6fa 19ec e6d8 04ff e7f4 e7ff e1e7
000000e0: f8ff 13da af21 ebfa 142f 2e16 dff9 11d5
000000f0: 2856 0ade 0bd7 eee5 52f5 0c36 1115 28fa

model/conv2d_19/Conv2D;StatefulPartitionedCall/model/conv2d_19/Conv2D i1 [136, 1, 1, 24]
80 46 4 84 103 -18 102 25
-31 24 -52 -65 -13 82 99 58
46 -72 12 -9 15 -57 127 70
-127 -3 13 -47 66 12 8 34
-20 24 -92 16 -103 -12 -20 95
3 -35 -91 -71 24 -42 62 12
54 -35 18 -5 5 -40 33 5
-33 -35 0 56 14 -91 -2 13
-23 78 62 -61 -74 127 -61 -43
25 38 116 -57 61 104 -50 -109
-118 -5 -28 -69 -127 -46 -34 44
-30 -44 50 77 83 -110 46 -47
-45 127 -28 2 -47 -69 8 -39
58 35 -64 56 -11 -51 -82 -59
-118 -91 15 -104 -29 94 -14 -19
-35 17 24 -21 68 45 -11 57
23 21 -69 -127 -1 -77 111 -84
28 -34 -3 68 100 21 -68 90
-14 -37 42 83 61 57 -5 -29
-1 -49 33 -10 25 -30 -11 37
18 72 28 -58 -127 -16 7 -24
8 81 -5 -45 1 -28 20 -43
-50 127 41 13 -51 -61 -17 -39
31 -47 -8 -23 8 41 -80 -55
-21 -48 -16 -31 24 13 -6 -127
-88 -4 -28 83 -25 15 70 -25
8 -2 15 8 -39 11 15 -43
36 -21 -5 -25 -92 6 10 -58
-73 -24 24 -54 -23 -36 -39 83
12 37 -8 49 31 53 -71 -127
42 32 23 10 -39 20 4 -19
-39 -12 3 127 51 -24 34 10
00000000: 502e 0454 67ee 6619 e118 ccbf f352 633a
00000010: 2eb8 0cf7 0fc7 7f46 81fd 0dd1 420c 0822
00000020: ec18 a410 99f4 ec5f 03dd a5b9 18d6 3e0c
00000030: 36dd 12fb 05d8 2105 dfdd 0038 0ea5 fe0d
00000040: e94e 3ec3 b67f c3d5 1926 74c7 3d68 ce93
00000050: 8afb e4bb 81d2 de2c e2d4 324d 5392 2ed1
00000060: d37f e402 d1bb 08d9 3a23 c038 f5cd aec5
00000070: 8aa5 0f98 e35e f2ed dd11 18eb 442d f539
00000080: 1715 bb81 ffb3 6fac 1cde fd44 6415 bc5a
00000090: f2db 2a53 3d39 fbe3 ffcf 21f6 19e2 f525
000000a0: 1248 1cc6 81f0 07e8 0851 fbd3 01e4 14d5
000000b0: ce7f 290d cdc3 efd9 1fd1 f8e9 0829 b0c9
000000c0: ebd0 f0e1 180d fa81 a8fc e453 e70f 46e7
000000d0: 08fe 0f08 d90b 0fd5 24eb fbe7 a406 0ac6
000000e0: b7e8 18ca e9dc d953 0c25 f831 1f35 b981
000000f0: 2a20 170a d914 04ed d9f4 037f 33e8 220a

model/batch_normalization_29/FusedBatchNormV3;StatefulPartitionedCall/model/batch_normalization_29/FusedBatchNormV3;model/depthwise_conv2d_9/depthwise;StatefulPartitionedCall/model/depthwise_conv2d_9/depthwise;model/depthwise_conv2d_10/depthwise;StatefulPartitionedCall/model/depthwise_conv2d_10/depthwise i1 [1, 3, 3, 136]
7 111 21 3 -32 -44 -80 -2
-22 -6 -8 18 1 32 0 24
-8 56 -105 46 9 25 14 14
-16 117 -25 -57 82 2 44 -47
-39 -63 20 6 -107 -78 -59 -15
56 6 96 -5 7 -49 58 2
-6 -4 10 -15 34 5 48 -24
10 22 38 53 -1 -4 29 73
52 64 40 47 43 -94 -31 27
-2 7 -5 -44 -64 -41 37 25
41 31 -67 16 -3 -14 -94 43
29 34 -57 -51 17 -29 -34 -44
16 7 -2 62 -48 32 -5 30
16 25 18 18 -21 42 10 21
-18 -16 22 -6 37 37 3 -26
-18 19 77 -2 -1 58 10 5
-1 38 3 -33 -6 10 6 23
127 86 -52 21 41 -36 22 -51
-47 86 79 92 38 103 -127 117
-22 9 29 80 -60 -127 -127 40
16 24 -48 -127 -13 74 32 -75
-91 -6 115 88 -123 -88 12 -8
-85 -41 -127 -87 72 -97 64 -1
-127 -41 -17 13 -52 127 -127 3
53 52 -41 90 -36 -124 93 -48
-92 -96 118 72 127 -115 21 -45
85 71 43 -23 127 110 102 -36
111 56 63 124 -31 -127 17 16
19 -28 -77 -90 9 -7 -65 -36
-58 127 -7 91 -127 127 -40 -115
-37 117 -127 8 104 68 48 22
-111 60 79 6 -4 -53 -45 -12
00000000: 076f 1503 e0d4 b0fe eafa f812 0120 0018
00000010: f838 972e 0919 0e0e f075 e7c7 5202 2cd1
00000020: d9c1 1406 95b2 c5f1 3806 60fb 07cf 3a02
00000030: fafc 0af1 2205 30e8 0a16 2635 fffc 1d49
00000040: 3440 282f 2ba2 e11b fe07 fbd4 c0d7 2519
00000050: 291f bd10 fdf2 a22b 1d22 c7cd 11e3 ded4
00000060: 1007 fe3e d020 fb1e 1019 1212 eb2a 0a15
00000070: eef0 16fa 2525 03e6 ee13 4dfe ff3a 0a05
00000080: ff26 03df fa0a 0617 7f56 cc15 29dc 16cd
00000090: d156 4f5c 2667 8175 ea09 1d50 c481 8128
000000a0: 1018 d081 f34a 20b5 a5fa 7358 85a8 0cf8
000000b0: abd7 81a9 489f 40ff 81d7 ef0d cc7f 8103
000000c0: 3534 d75a dc84 5dd0 a4a0 7648 7f8d 15d3
000000d0: 5547 2be9 7f6e 66dc 6f38 3f7c e181 1110
000000e0: 13e4 b3a6 09f9 bfdc c67f f95b 817f d88d
000000f0: db75 8108 6844 3016 913c 4f06 fccb d3f4

model/conv2d_20/Conv2D;StatefulPartitionedCall/model/conv2d_20/Conv2D i1 [24, 1, 1, 136]
24 11 -15 -1 -3 -31 -2 -27
-78 -40 -84 10 29 -53 -37 51
2 10 41 -29 30 -6 36 56
34 4 -14 -4 57 -7 -1 77
39 55 -96 -36 -30 30 -51 19
-12 24 -33 -56 12 8 15 -2
21 -9 -2 34 -42 -32 -20 8
-5 28 -21 8 71 -48 -16 0
38 65 54 22 -95 -63 25 43
-16 -16 42 -22 38 35 54 12
-8 94 28 21 -17 22 -51 -4
6 34 31 8 -19 -33 -56 12
-90 127 -33 -7 58 -24 13 -65
-44 41 -35 34 14 29 -16 15
-47 -34 -26 1 40 -8 -69 -2
-73 19 35 -58 23 -33 -32 29
44 -32 11 -27 50 -7 -35 -5
2 2 36 6 -57 -19 4 -34
-8 -59 35 58 -7 -8 7 -24
19 20 13 -23 -6 -31 -30 13
-12 -1 23 -37 10 -7 4 7
-19 3 -29 -31 17 7 12 25
-15 -10 3 36 11 -5 -62 10
28 5 -34 -63 24 -51 -30 3
23 36 -7 -25 27 -68 -47 21
8 -12 -35 -14 11 6 -7 6
34 127 -26 -32 20 -5 -8 7
-51 8 21 34 -35 21 -30 -67
12 33 69 21 -54 -29 76 33
-26 -69 93 -4 -43 16 28 -8
-30 3 -15 0 -47 17 94 -27
-22 29 32 -2 17 56 12 2
00000000: 180b f1ff fde1 fee5 b2d8 ac0a 1dcb db33
00000010: 020a 29e3 1efa 2438 2204 f2fc 39f9 ff4d
00000020: 2737 a0dc e21e cd13 f418 dfc8 0c08 0ffe
00000030: 15f7 fe22 d6e0 ec08 fb1c eb08 47d0 f000
00000040: 2641 3616 a1c1 192b f0f0 2aea 2623 360c
00000050: f85e 1c15 ef16 cdfc 0622 1f08 eddf c80c
00000060: a67f dff9 3ae8 0dbf d429 dd22 0e1d f00f
00000070: d1de e601 28f8 bbfe b713 23c6 17df e01d
00000080: 2ce0 0be5 32f9 ddfb 0202 2406 c7ed 04de
00000090: f8c5 233a f9f8 07e8 1314 0de9 fae1 e20d
000000a0: f4ff 17db 0af9 0407 ed03 e3e1 1107 0c19
000000b0: f1f6 0324 0bfb c20a 1c05 dec1 18cd e203
000000c0: 1724 f9e7 1bbc d115 08f4 ddf2 0b06 f906
000000d0: 227f e6e0 14fb f807 cd08 1522 dd15 e2bd
000000e0: 0c21 4515 cae3 4c21 e6bb 5dfc d510 1cf8
000000f0: e203 f100 d111 5ee5 ea1d 20fe 1138 0c02

model/conv2d_21/Conv2D;StatefulPartitionedCall/model/conv2d_21/Conv2D i1 [136, 1, 1, 24]
-7 22 -115 23 -58 -49 -2 -6
-3 13 127 90 104 50 19 48
22 11 -6 -25 28 31 -7 12
-20 44 -90 20 59 6 -127 15
-64 -39 81 -50 -24 5 -81 83
-20 65 -29 67 79 39 52 22
1 -57 -60 -22 -18 51 34 -26
-38 -32 -23 38 -34 127 66 36
-42 28 -5 21 -111 -92 42 -34
9 74 65 65 -40 19 -18 -46
-55 -46 5 -127 50 2 23 30
53 -11 89 110 70 -3 -28 -2
55 -23 69 -67 -127 -33 -44 83
-114 -45 -13 1 -6 -35 -32 35
19 85 -54 -27 3 -30 -23 -32
-127 -68 60 14 63 11 -51 -12
26 27 -80 83 22 -88 54 -16
-37 40 66 62 85 -31 65 73
28 -127 -63 -43 -13 62 13 70
21 101 42 -5 -77 94 -36 0
-78 59 -1 -1 47 -28 77 16
-72 12 2 -127 80 -7 -8 -9
-13 95 -24 53 -25 -94 56 46
-75 -11 -28 6 -61 1 -5 -17
22 -61 109 -41 -35 -75 123 10
-60 20 28 96 19 -60 16 17
36 119 70 -21 -127 46 5 -42
4 -69 2 46 84 -15 -99 48
51 -30 -59 1 -127 14 -22 -20
90 7 26 19 4 59 88 5
-2 -19 -5 36 87 34 46 -11
36 -25 11 65 -7 -2 -6 30
00000000: f916 8d17 c6cf fefa fd0d 7f5a 6832 1330
00000010: 160b fae7 1c1f f90c ec2c a614 3b06 810f
00000020: c0d9 51ce e805 af53 ec41 e343 4f27 3416
00000030: 01c7 c4ea ee33 22e6 dae0 e926 de7f 4224
00000040: d61c fb15 91a4 2ade 094a 4141 d813 eed2
00000050: c9d2 0581 3202 171e 35f5 596e 46fd e4fe
00000060: 37e9 45bd 81df d453 8ed3 f301 fadd e023
00000070: 1355 cae5 03e2 e9e0 81bc 3c0e 3f0b cdf4
00000080: 1a1b b053 16a8 36f0 db28 423e 55e1 4149
00000090: 1c81 c1d5 f33e 0d46 1565 2afb b35e dc00
000000a0: b23b ffff 2fe4 4d10 b80c 0281 50f9 f8f7
000000b0: f35f e835 e7a2 382e b5f5 e406 c301 fbef
000000c0: 16c3 6dd7 ddb5 7b0a c414 1c60 13c4 1011
000000d0: 2477 46eb 812e 05d6 04bb 022e 54f1 9d30
000000e0: 33e2 c501 810e eaec 5a07 1a13 043b 5805
000000f0: feed fb24 5722 2ef5 24e7 0b41 f9fe fa1e

model/batch_normalization_32/FusedBatchNormV3;StatefulPartitionedCall/model/batch_normalization_32/FusedBatchNormV3;model/depthwise_conv2d_10/depthwise;StatefulPartitionedCall/model/depthwise_conv2d_10/depthwise i1 [1, 3, 3, 136]
-36 11 -27 -35 -48 -78 24 -4
32 1 108 -61 -45 83 -15 -83
15 21 43 -86 -90 -65 -45 -21
-72 32 -65 12 56 -27 -16 -94
33 -30 4 72 -33 -3 24 40
-8 95 -41 23 62 36 -7 51
-86 32 -26 56 -17 -18 30 -25
16 -41 -61 -48 -44 23 22 42
-36 6 84 -66 -57 -113 -75 43
39 69 14 -54 13 -59 -51 -65
-25 7 78 64 -16 8 -3 40
-35 -3 -9 60 9 -12 30 43
-67 35 -10 21 60 -127 12 -44
-58 -8 21 -48 19 4 -11 -18
38 -1 -63 46 31 42 21 56
1 -25 51 27 56 5 51 -38
75 1 38 11 2 -84 20 -78
-67 -8 -66 -63 -38 -95 -28 70
54 -35 -33 -87 -96 111 13 74
94 45 108 64 -104 -127 -79 66
-127 -13 -73 92 -66 -76 -96 -71
127 -58 -35 127 -98 16 122 125
47 69 -40 41 110 75 -2 -8
-98 66 -13 127 -101 36 -17 -22
85 -83 -69 -29 -127 75 -71 98
16 72 123 -127 -53 -49 55 -126
108 37 -31 -81 114 -115 -85 -63
-66 91 124 37 82 103 13 117
-115 51 -51 127 127 75 -85 107
-123 17 -43 91 105 -71 54 -127
-79 127 51 3 58 67 -63 -52
58 -14 -118 88 -71 100 59 89
00000000: dc0b e5dd d0b2 18fc 2001 6cc3 d353 f1ad
00000010: 0f15 2baa a6bf d3eb b820 bf0c 38e5 f0a2
00000020: 21e2 0448 dffd 1828 f85f d717 3e24 f933
00000030: aa20 e638 efee 1ee7 10d7 c3d0 d417 162a
00000040: dc06 54be c78f b52b 2745 0eca 0dc5 cdbf
00000050: e707 4e40 f008 fd28 ddfd f73c 09f4 1e2b
00000060: bd23 f615 3c81 0cd4 c6f8 15d0 1304 f5ee
00000070: 26ff c12e 1f2a 1538 01e7 331b 3805 33da
00000080: 4b01 260b 02ac 14b2 bdf8 bec1 daa1 e446
00000090: 36dd dfa9 a06f 0d4a 5e2d 6c40 9881 b142
000000a0: 81f3 b75c beb4 a0b9 7fc6 dd7f 9e10 7a7d
000000b0: 2f45 d829 6e4b fef8 9e42 f37f 9b24 efea
000000c0: 55ad bbe3 814b b962 1048 7b81 cbcf 3782
000000d0: 6c25 e1af 728d abc1 be5b 7c25 5267 0d75
000000e0: 8d33 cd7f 7f4b ab6b 8511 d55b 69b9 3681
000000f0: b17f 3303 3a43 c1cc 3af2 8a58 b964 3b59

model/conv2d_22/Conv2D;StatefulPartitionedCall/model/conv2d_22/Conv2D i1 [48, 1, 1, 136]
-23 -48 44 31 -49 -28 -89 20
-2 29 -34 47 16 119 35 -28
-31 -20 13 3 48 75 -33 -12
75 56 -34 -96 6 -1 72 -40
-59 -49 -4 -106 -61 -18 -10 89
-47 -97 33 -105 -6 -6 -46 -80
2 74 -48 -27 24 1 -127 49
-66 -8 49 -60 -4 -19 31 64
-47 -1 37 -33 -16 -62 -19 -84
-19 41 65 31 26 -79 -13 -57
-63 -8 -79 -15 -69 -58 95 -3
48 -62 3 -67 -18 72 -34 -47
-9 -31 66 0 20 -75 -102 33
-48 -10 32 9 -38 15 4 27
5 -27 -15 -14 17 56 0 71
115 2 -49 -22 9 -26 -20 -96
-41 36 46 25 -21 -93 -18 -35
65 -127 69 26 21 33 13 34
39 -51 40 -4 -41 -17 -52 -31
-32 -32 -30 40 -27 47 17 -9
-9 21 -39 -49 21 -30 -26 -52
9 -72 75 22 34 -32 83 13
57 2 90 -40 58 -29 -30 68
6 73 76 16 40 58 -9 15
-62 -58 -8 -2 9 -56 29 10
18 -12 -13 -32 -48 -9 12 -1
-31 40 -15 15 10 -17 -64 28
-83 59 31 -87 23 -41 63 -43
10 -34 34 -82 51 17 22 22
65 -45 104 -43 -61 32 -90 44
-5 -6 -13 -11 -10 5 51 8
10 8 -12 -21 -16 106 81 -2
00000000: e9d0 2c1f cfe4 a714 fe1d de2f 1077 23e4
00000010: e1ec 0d03 304b dff4 4b38 dea0 06ff 48d8
00000020: c5cf fc96 c3ee f659 d19f 2197 fafa d2b0
00000030: 024a d0e5 1801 8131 bef8 31c4 fced 1f40
00000040: d1ff 25df f0c2 edac ed29 411f 1ab1 f3c7
00000050: c1f8 b1f1 bbc6 5ffd 30c2 03bd ee48 ded1
00000060: f7e1 4200 14b5 9a21 d0f6 2009 da0f 041b
00000070: 05e5 f1f2 1138 0047 7302 cfea 09e6 eca0
00000080: d724 2e19 eba3 eedd 4181 451a 1521 0d22
00000090: 27cd 28fc d7ef cce1 e0e0 e228 e52f 11f7
000000a0: f715 d9cf 15e2 e6cc 09b8 4b16 22e0 530d
000000b0: 3902 5ad8 3ae3 e244 0649 4c10 283a f70f
000000c0: c2c6 f8fe 09c8 1d0a 12f4 f3e0 d0f7 0cff
000000d0: e128 f10f 0aef c01c ad3b 1fa9 17d7 3fd5
000000e0: 0ade 22ae 3311 1616 41d3 68d5 c320 a62c
000000f0: fbfa f3f5 f605 3308 0a08 f4eb f06a 51fe

model/conv2d_23/Conv2D;StatefulPartitionedCall/model/conv2d_23/Conv2D i1 [224, 1, 1, 48]
-8 63 122 -36 -127 23 -24 -6
-55 45 -32 -63 10 60 -7 -29
4 -2 -36 75 90 0 -110 -47
-5 9 47 21 -87 -45 -5 5
-47 -56 64 -66 63 -25 16 50
1 16 -52 -48 65 -16 -18 13
23 -37 -30 58 -36 52 0 29
-18 56 -5 3 19 49 -80 -26
52 25 30 -28 -40 24 -71 3
-11 -50 -60 32 -89 -15 -4 13
82 -1 13 -6 55 8 -15 -21
-50 -38 -127 -30 -17 -23 -23 -14
-13 1 -49 -88 46 4 -1 -5
82 63 -58 25 52 -62 88 -41
20 -83 127 -61 -86 -23 -39 -4
-26 -26 -37 -111 -49 -12 11 -17
-99 39 27 75 -15 39 -6 -82
-56 47 -1 -29 10 -11 -1 -2
32 -29 -23 -36 6 -93 95 22
29 21 83 -7 -32 17 -19 -24
47 28 -42 -8 -23 -51 83 7
3 -27 25 -23 85 -53 5 -43
-43 -43 -13 74 -18 9 -30 -29
127 109 44 -28 -63 -14 7 -50
-33 -93 -65 127 61 114 49 70
41 -78 -77 -78 46 11 24 -59
-20 17 14 -73 -50 -25 -15 -46
-20 -18 28 7 -58 15 -60 36
126 24 -28 -8 30 -4 -55 28
-83 -95 -34 32 -8 36 -21 -90
-77 -66 -16 37 84 -86 -96 -111
96 -40 -61 -5 51 1 -35 -40
00000000: f83f 7adc 8117 e8fa c92d e0c1 0a3c f9e3
00000010: 04fe dc4b 5a00 92d1 fb09 2f15 a9d3 fb05
00000020: d1c8 40be 3fe7 1032 0110 ccd0 41f0 ee0d
00000030: 17db e23a dc34 001d ee38 fb03 1331 b0e6
00000040: 3419 1ee4 d818 b903 f5ce c420 a7f1 fc0d
00000050: 52ff 0dfa 3708 f1eb ceda 81e2 efe9 e9f2
00000060: f301 cfa8 2e04 fffb 523f c619 34c2 58d7
00000070: 14ad 7fc3 aae9 d9fc e6e6 db91 cff4 0bef
00000080: 9d27 1b4b f127 faae c82f ffe3 0af5 fffe
00000090: 20e3 e9dc 06a3 5f16 1d15 53f9 e011 ede8
000000a0: 2f1c d6f8 e9cd 5307 03e5 19e9 55cb 05d5
000000b0: d5d5 f34a ee09 e2e3 7f6d 2ce4 c1f2 07ce
000000c0: dfa3 bf7f 3d72 3146 29b2 b3b2 2e0b 18c5
000000d0: ec11 0eb7 cee7 f1d2 ecee 1c07 c60f c424
000000e0: 7e18 e4f8 1efc c91c ada1 de20 f824 eba6
000000f0: b3be f025 54aa a091 60d8 c3fb 3301 ddd8
